{"config": {"output_layers": [["dense_7", 0, 0]], "name": "model_3", "layers": [{"inbound_nodes": [], "config": {"batch_input_shape": [null, 299, 299, 3], "dtype": "float32", "name": "input_1", "sparse": false}, "name": "input_1", "class_name": "InputLayer"}, {"inbound_nodes": [[["input_1", 0, 0, {}]]], "config": {"bias_constraint": null, "bias_regularizer": null, "dilation_rate": [1, 1], "kernel_constraint": null, "kernel_initializer": {"config": {"scale": 1.0, "mode": "fan_avg", "distribution": "uniform", "seed": null}, "class_name": "VarianceScaling"}, "kernel_regularizer": null, "trainable": false, "activation": "linear", "activity_regularizer": null, "filters": 32, "padding": "valid", "strides": [2, 2], "bias_initializer": {"config": {}, "class_name": "Zeros"}, "use_bias": false, "data_format": "channels_last", "kernel_size": [3, 3], "name": "conv2d_1"}, "name": "conv2d_1", "class_name": "Conv2D"}, {"inbound_nodes": [[["conv2d_1", 0, 0, {}]]], "config": {"scale": false, "momentum": 0.99, "gamma_regularizer": null, "axis": 3, "gamma_constraint": null, "center": true, "beta_regularizer": null, "moving_mean_initializer": {"config": {}, "class_name": "Zeros"}, "epsilon": 0.001, "name": "batch_normalization_1", "moving_variance_initializer": {"config": {}, "class_name": "Ones"}, "beta_constraint": null, "beta_initializer": {"config": {}, "class_name": "Zeros"}, "trainable": false, "gamma_initializer": {"config": {}, "class_name": "Ones"}}, "name": "batch_normalization_1", "class_name": "BatchNormalization"}, {"inbound_nodes": [[["batch_normalization_1", 0, 0, {}]]], "config": {"activation": "relu", "name": "activation_1", "trainable": false}, "name": "activation_1", "class_name": "Activation"}, {"inbound_nodes": [[["activation_1", 0, 0, {}]]], "config": {"bias_constraint": null, "bias_regularizer": null, "dilation_rate": [1, 1], "kernel_constraint": null, "kernel_initializer": {"config": {"scale": 1.0, "mode": "fan_avg", "distribution": "uniform", "seed": null}, "class_name": "VarianceScaling"}, "kernel_regularizer": null, "trainable": false, "activation": "linear", "activity_regularizer": null, "filters": 32, "padding": "valid", "strides": [1, 1], "bias_initializer": {"config": {}, "class_name": "Zeros"}, "use_bias": false, "data_format": "channels_last", "kernel_size": [3, 3], "name": "conv2d_2"}, "name": "conv2d_2", "class_name": "Conv2D"}, {"inbound_nodes": [[["conv2d_2", 0, 0, {}]]], "config": {"scale": false, "momentum": 0.99, "gamma_regularizer": null, "axis": 3, "gamma_constraint": null, "center": true, "beta_regularizer": null, "moving_mean_initializer": {"config": {}, "class_name": "Zeros"}, "epsilon": 0.001, "name": "batch_normalization_2", "moving_variance_initializer": {"config": {}, "class_name": "Ones"}, "beta_constraint": null, "beta_initializer": {"config": {}, "class_name": "Zeros"}, "trainable": false, "gamma_initializer": {"config": {}, "class_name": "Ones"}}, "name": "batch_normalization_2", "class_name": "BatchNormalization"}, {"inbound_nodes": [[["batch_normalization_2", 0, 0, {}]]], "config": {"activation": "relu", "name": "activation_2", "trainable": false}, "name": "activation_2", "class_name": "Activation"}, {"inbound_nodes": [[["activation_2", 0, 0, {}]]], "config": {"bias_constraint": null, "bias_regularizer": null, "dilation_rate": [1, 1], "kernel_constraint": null, "kernel_initializer": {"config": {"scale": 1.0, "mode": "fan_avg", "distribution": "uniform", "seed": null}, "class_name": "VarianceScaling"}, "kernel_regularizer": null, "trainable": false, "activation": "linear", "activity_regularizer": null, "filters": 64, "padding": "same", "strides": [1, 1], "bias_initializer": {"config": {}, "class_name": "Zeros"}, "use_bias": false, "data_format": "channels_last", "kernel_size": [3, 3], "name": "conv2d_3"}, "name": "conv2d_3", "class_name": "Conv2D"}, {"inbound_nodes": [[["conv2d_3", 0, 0, {}]]], "config": {"scale": false, "momentum": 0.99, "gamma_regularizer": null, "axis": 3, "gamma_constraint": null, "center": true, "beta_regularizer": null, "moving_mean_initializer": {"config": {}, "class_name": "Zeros"}, "epsilon": 0.001, "name": "batch_normalization_3", "moving_variance_initializer": {"config": {}, "class_name": "Ones"}, "beta_constraint": null, "beta_initializer": {"config": {}, "class_name": "Zeros"}, "trainable": false, "gamma_initializer": {"config": {}, "class_name": "Ones"}}, "name": "batch_normalization_3", "class_name": "BatchNormalization"}, {"inbound_nodes": [[["batch_normalization_3", 0, 0, {}]]], "config": {"activation": "relu", "name": "activation_3", "trainable": false}, "name": "activation_3", "class_name": "Activation"}, {"inbound_nodes": [[["activation_3", 0, 0, {}]]], "config": {"name": "max_pooling2d_1", "data_format": "channels_last", "padding": "valid", "strides": [2, 2], "trainable": false, "pool_size": [3, 3]}, "name": "max_pooling2d_1", "class_name": "MaxPooling2D"}, {"inbound_nodes": [[["max_pooling2d_1", 0, 0, {}]]], "config": {"bias_constraint": null, "bias_regularizer": null, "dilation_rate": [1, 1], "kernel_constraint": null, "kernel_initializer": {"config": {"scale": 1.0, "mode": "fan_avg", "distribution": "uniform", "seed": null}, "class_name": "VarianceScaling"}, "kernel_regularizer": null, "trainable": false, "activation": "linear", "activity_regularizer": null, "filters": 80, "padding": "valid", "strides": [1, 1], "bias_initializer": {"config": {}, "class_name": "Zeros"}, "use_bias": false, "data_format": "channels_last", "kernel_size": [1, 1], "name": "conv2d_4"}, "name": "conv2d_4", "class_name": "Conv2D"}, {"inbound_nodes": [[["conv2d_4", 0, 0, {}]]], "config": {"scale": false, "momentum": 0.99, "gamma_regularizer": null, "axis": 3, "gamma_constraint": null, "center": true, "beta_regularizer": null, "moving_mean_initializer": {"config": {}, "class_name": "Zeros"}, "epsilon": 0.001, "name": "batch_normalization_4", "moving_variance_initializer": {"config": {}, "class_name": "Ones"}, "beta_constraint": null, "beta_initializer": {"config": {}, "class_name": "Zeros"}, "trainable": false, "gamma_initializer": {"config": {}, "class_name": "Ones"}}, "name": "batch_normalization_4", "class_name": "BatchNormalization"}, {"inbound_nodes": [[["batch_normalization_4", 0, 0, {}]]], "config": {"activation": "relu", "name": "activation_4", "trainable": false}, "name": "activation_4", "class_name": "Activation"}, {"inbound_nodes": [[["activation_4", 0, 0, {}]]], "config": {"bias_constraint": null, "bias_regularizer": null, "dilation_rate": [1, 1], "kernel_constraint": null, "kernel_initializer": {"config": {"scale": 1.0, "mode": "fan_avg", "distribution": "uniform", "seed": null}, "class_name": "VarianceScaling"}, "kernel_regularizer": null, "trainable": false, "activation": "linear", "activity_regularizer": null, "filters": 192, "padding": "valid", "strides": [1, 1], "bias_initializer": {"config": {}, "class_name": "Zeros"}, "use_bias": false, "data_format": "channels_last", "kernel_size": [3, 3], "name": "conv2d_5"}, "name": "conv2d_5", "class_name": "Conv2D"}, {"inbound_nodes": [[["conv2d_5", 0, 0, {}]]], "config": {"scale": false, "momentum": 0.99, "gamma_regularizer": null, "axis": 3, "gamma_constraint": null, "center": true, "beta_regularizer": null, "moving_mean_initializer": {"config": {}, "class_name": "Zeros"}, "epsilon": 0.001, "name": "batch_normalization_5", "moving_variance_initializer": {"config": {}, "class_name": "Ones"}, "beta_constraint": null, "beta_initializer": {"config": {}, "class_name": "Zeros"}, "trainable": false, "gamma_initializer": {"config": {}, "class_name": "Ones"}}, "name": "batch_normalization_5", "class_name": "BatchNormalization"}, {"inbound_nodes": [[["batch_normalization_5", 0, 0, {}]]], "config": {"activation": "relu", "name": "activation_5", "trainable": false}, "name": "activation_5", "class_name": "Activation"}, {"inbound_nodes": [[["activation_5", 0, 0, {}]]], "config": {"name": "max_pooling2d_2", "data_format": "channels_last", "padding": "valid", "strides": [2, 2], "trainable": false, "pool_size": [3, 3]}, "name": "max_pooling2d_2", "class_name": "MaxPooling2D"}, {"inbound_nodes": [[["max_pooling2d_2", 0, 0, {}]]], "config": {"bias_constraint": null, "bias_regularizer": null, "dilation_rate": [1, 1], "kernel_constraint": null, "kernel_initializer": {"config": {"scale": 1.0, "mode": "fan_avg", "distribution": "uniform", "seed": null}, "class_name": "VarianceScaling"}, "kernel_regularizer": null, "trainable": false, "activation": "linear", "activity_regularizer": null, "filters": 64, "padding": "same", "strides": [1, 1], "bias_initializer": {"config": {}, "class_name": "Zeros"}, "use_bias": false, "data_format": "channels_last", "kernel_size": [1, 1], "name": "conv2d_9"}, "name": "conv2d_9", "class_name": "Conv2D"}, {"inbound_nodes": [[["conv2d_9", 0, 0, {}]]], "config": {"scale": false, "momentum": 0.99, "gamma_regularizer": null, "axis": 3, "gamma_constraint": null, "center": true, "beta_regularizer": null, "moving_mean_initializer": {"config": {}, "class_name": "Zeros"}, "epsilon": 0.001, "name": "batch_normalization_9", "moving_variance_initializer": {"config": {}, "class_name": "Ones"}, "beta_constraint": null, "beta_initializer": {"config": {}, "class_name": "Zeros"}, "trainable": false, "gamma_initializer": {"config": {}, "class_name": "Ones"}}, "name": "batch_normalization_9", "class_name": "BatchNormalization"}, {"inbound_nodes": [[["batch_normalization_9", 0, 0, {}]]], "config": {"activation": "relu", "name": "activation_9", "trainable": false}, "name": "activation_9", "class_name": "Activation"}, {"inbound_nodes": [[["max_pooling2d_2", 0, 0, {}]]], "config": {"bias_constraint": null, "bias_regularizer": null, "dilation_rate": [1, 1], "kernel_constraint": null, "kernel_initializer": {"config": {"scale": 1.0, "mode": "fan_avg", "distribution": "uniform", "seed": null}, "class_name": "VarianceScaling"}, "kernel_regularizer": null, "trainable": false, "activation": "linear", "activity_regularizer": null, "filters": 48, "padding": "same", "strides": [1, 1], "bias_initializer": {"config": {}, "class_name": "Zeros"}, "use_bias": false, "data_format": "channels_last", "kernel_size": [1, 1], "name": "conv2d_7"}, "name": "conv2d_7", "class_name": "Conv2D"}, {"inbound_nodes": [[["activation_9", 0, 0, {}]]], "config": {"bias_constraint": null, "bias_regularizer": null, "dilation_rate": [1, 1], "kernel_constraint": null, "kernel_initializer": {"config": {"scale": 1.0, "mode": "fan_avg", "distribution": "uniform", "seed": null}, "class_name": "VarianceScaling"}, "kernel_regularizer": null, "trainable": false, "activation": "linear", "activity_regularizer": null, "filters": 96, "padding": "same", "strides": [1, 1], "bias_initializer": {"config": {}, "class_name": "Zeros"}, "use_bias": false, "data_format": "channels_last", "kernel_size": [3, 3], "name": "conv2d_10"}, "name": "conv2d_10", "class_name": "Conv2D"}, {"inbound_nodes": [[["conv2d_7", 0, 0, {}]]], "config": {"scale": false, "momentum": 0.99, "gamma_regularizer": null, "axis": 3, "gamma_constraint": null, "center": true, "beta_regularizer": null, "moving_mean_initializer": {"config": {}, "class_name": "Zeros"}, "epsilon": 0.001, "name": "batch_normalization_7", "moving_variance_initializer": {"config": {}, "class_name": "Ones"}, "beta_constraint": null, "beta_initializer": {"config": {}, "class_name": "Zeros"}, "trainable": false, "gamma_initializer": {"config": {}, "class_name": "Ones"}}, "name": "batch_normalization_7", "class_name": "BatchNormalization"}, {"inbound_nodes": [[["conv2d_10", 0, 0, {}]]], "config": {"scale": false, "momentum": 0.99, "gamma_regularizer": null, "axis": 3, "gamma_constraint": null, "center": true, "beta_regularizer": null, "moving_mean_initializer": {"config": {}, "class_name": "Zeros"}, "epsilon": 0.001, "name": "batch_normalization_10", "moving_variance_initializer": {"config": {}, "class_name": "Ones"}, "beta_constraint": null, "beta_initializer": {"config": {}, "class_name": "Zeros"}, "trainable": false, "gamma_initializer": {"config": {}, "class_name": "Ones"}}, "name": "batch_normalization_10", "class_name": "BatchNormalization"}, {"inbound_nodes": [[["batch_normalization_7", 0, 0, {}]]], "config": {"activation": "relu", "name": "activation_7", "trainable": false}, "name": "activation_7", "class_name": "Activation"}, {"inbound_nodes": [[["batch_normalization_10", 0, 0, {}]]], "config": {"activation": "relu", "name": "activation_10", "trainable": false}, "name": "activation_10", "class_name": "Activation"}, {"inbound_nodes": [[["max_pooling2d_2", 0, 0, {}]]], "config": {"name": "average_pooling2d_1", "data_format": "channels_last", "padding": "same", "strides": [1, 1], "trainable": false, "pool_size": [3, 3]}, "name": "average_pooling2d_1", "class_name": "AveragePooling2D"}, {"inbound_nodes": [[["max_pooling2d_2", 0, 0, {}]]], "config": {"bias_constraint": null, "bias_regularizer": null, "dilation_rate": [1, 1], "kernel_constraint": null, "kernel_initializer": {"config": {"scale": 1.0, "mode": "fan_avg", "distribution": "uniform", "seed": null}, "class_name": "VarianceScaling"}, "kernel_regularizer": null, "trainable": false, "activation": "linear", "activity_regularizer": null, "filters": 64, "padding": "same", "strides": [1, 1], "bias_initializer": {"config": {}, "class_name": "Zeros"}, "use_bias": false, "data_format": "channels_last", "kernel_size": [1, 1], "name": "conv2d_6"}, "name": "conv2d_6", "class_name": "Conv2D"}, {"inbound_nodes": [[["activation_7", 0, 0, {}]]], "config": {"bias_constraint": null, "bias_regularizer": null, "dilation_rate": [1, 1], "kernel_constraint": null, "kernel_initializer": {"config": {"scale": 1.0, "mode": "fan_avg", "distribution": "uniform", "seed": null}, "class_name": "VarianceScaling"}, "kernel_regularizer": null, "trainable": false, "activation": "linear", "activity_regularizer": null, "filters": 64, "padding": "same", "strides": [1, 1], "bias_initializer": {"config": {}, "class_name": "Zeros"}, "use_bias": false, "data_format": "channels_last", "kernel_size": [5, 5], "name": "conv2d_8"}, "name": "conv2d_8", "class_name": "Conv2D"}, {"inbound_nodes": [[["activation_10", 0, 0, {}]]], "config": {"bias_constraint": null, "bias_regularizer": null, "dilation_rate": [1, 1], "kernel_constraint": null, "kernel_initializer": {"config": {"scale": 1.0, "mode": "fan_avg", "distribution": "uniform", "seed": null}, "class_name": "VarianceScaling"}, "kernel_regularizer": null, "trainable": false, "activation": "linear", "activity_regularizer": null, "filters": 96, "padding": "same", "strides": [1, 1], "bias_initializer": {"config": {}, "class_name": "Zeros"}, "use_bias": false, "data_format": "channels_last", "kernel_size": [3, 3], "name": "conv2d_11"}, "name": "conv2d_11", "class_name": "Conv2D"}, {"inbound_nodes": [[["average_pooling2d_1", 0, 0, {}]]], "config": {"bias_constraint": null, "bias_regularizer": null, "dilation_rate": [1, 1], "kernel_constraint": null, "kernel_initializer": {"config": {"scale": 1.0, "mode": "fan_avg", "distribution": "uniform", "seed": null}, "class_name": "VarianceScaling"}, "kernel_regularizer": null, "trainable": false, "activation": "linear", "activity_regularizer": null, "filters": 32, "padding": "same", "strides": [1, 1], "bias_initializer": {"config": {}, "class_name": "Zeros"}, "use_bias": false, "data_format": "channels_last", "kernel_size": [1, 1], "name": "conv2d_12"}, "name": "conv2d_12", "class_name": "Conv2D"}, {"inbound_nodes": [[["conv2d_6", 0, 0, {}]]], "config": {"scale": false, "momentum": 0.99, "gamma_regularizer": null, "axis": 3, "gamma_constraint": null, "center": true, "beta_regularizer": null, "moving_mean_initializer": {"config": {}, "class_name": "Zeros"}, "epsilon": 0.001, "name": "batch_normalization_6", "moving_variance_initializer": {"config": {}, "class_name": "Ones"}, "beta_constraint": null, "beta_initializer": {"config": {}, "class_name": "Zeros"}, "trainable": false, "gamma_initializer": {"config": {}, "class_name": "Ones"}}, "name": "batch_normalization_6", "class_name": "BatchNormalization"}, {"inbound_nodes": [[["conv2d_8", 0, 0, {}]]], "config": {"scale": false, "momentum": 0.99, "gamma_regularizer": null, "axis": 3, "gamma_constraint": null, "center": true, "beta_regularizer": null, "moving_mean_initializer": {"config": {}, "class_name": "Zeros"}, "epsilon": 0.001, "name": "batch_normalization_8", "moving_variance_initializer": {"config": {}, "class_name": "Ones"}, "beta_constraint": null, "beta_initializer": {"config": {}, "class_name": "Zeros"}, "trainable": false, "gamma_initializer": {"config": {}, "class_name": "Ones"}}, "name": "batch_normalization_8", "class_name": "BatchNormalization"}, {"inbound_nodes": [[["conv2d_11", 0, 0, {}]]], "config": {"scale": false, "momentum": 0.99, "gamma_regularizer": null, "axis": 3, "gamma_constraint": null, "center": true, "beta_regularizer": null, "moving_mean_initializer": {"config": {}, "class_name": "Zeros"}, "epsilon": 0.001, "name": "batch_normalization_11", "moving_variance_initializer": {"config": {}, "class_name": "Ones"}, "beta_constraint": null, "beta_initializer": {"config": {}, "class_name": "Zeros"}, "trainable": false, "gamma_initializer": {"config": {}, "class_name": "Ones"}}, "name": "batch_normalization_11", "class_name": "BatchNormalization"}, {"inbound_nodes": [[["conv2d_12", 0, 0, {}]]], "config": {"scale": false, "momentum": 0.99, "gamma_regularizer": null, "axis": 3, "gamma_constraint": null, "center": true, "beta_regularizer": null, "moving_mean_initializer": {"config": {}, "class_name": "Zeros"}, "epsilon": 0.001, "name": "batch_normalization_12", "moving_variance_initializer": {"config": {}, "class_name": "Ones"}, "beta_constraint": null, "beta_initializer": {"config": {}, "class_name": "Zeros"}, "trainable": false, "gamma_initializer": {"config": {}, "class_name": "Ones"}}, "name": "batch_normalization_12", "class_name": "BatchNormalization"}, {"inbound_nodes": [[["batch_normalization_6", 0, 0, {}]]], "config": {"activation": "relu", "name": "activation_6", "trainable": false}, "name": "activation_6", "class_name": "Activation"}, {"inbound_nodes": [[["batch_normalization_8", 0, 0, {}]]], "config": {"activation": "relu", "name": "activation_8", "trainable": false}, "name": "activation_8", "class_name": "Activation"}, {"inbound_nodes": [[["batch_normalization_11", 0, 0, {}]]], "config": {"activation": "relu", "name": "activation_11", "trainable": false}, "name": "activation_11", "class_name": "Activation"}, {"inbound_nodes": [[["batch_normalization_12", 0, 0, {}]]], "config": {"activation": "relu", "name": "activation_12", "trainable": false}, "name": "activation_12", "class_name": "Activation"}, {"inbound_nodes": [[["activation_6", 0, 0, {}], ["activation_8", 0, 0, {}], ["activation_11", 0, 0, {}], ["activation_12", 0, 0, {}]]], "config": {"name": "mixed0", "axis": 3, "trainable": false}, "name": "mixed0", "class_name": "Concatenate"}, {"inbound_nodes": [[["mixed0", 0, 0, {}]]], "config": {"bias_constraint": null, "bias_regularizer": null, "dilation_rate": [1, 1], "kernel_constraint": null, "kernel_initializer": {"config": {"scale": 1.0, "mode": "fan_avg", "distribution": "uniform", "seed": null}, "class_name": "VarianceScaling"}, "kernel_regularizer": null, "trainable": false, "activation": "linear", "activity_regularizer": null, "filters": 64, "padding": "same", "strides": [1, 1], "bias_initializer": {"config": {}, "class_name": "Zeros"}, "use_bias": false, "data_format": "channels_last", "kernel_size": [1, 1], "name": "conv2d_16"}, "name": "conv2d_16", "class_name": "Conv2D"}, {"inbound_nodes": [[["conv2d_16", 0, 0, {}]]], "config": {"scale": false, "momentum": 0.99, "gamma_regularizer": null, "axis": 3, "gamma_constraint": null, "center": true, "beta_regularizer": null, "moving_mean_initializer": {"config": {}, "class_name": "Zeros"}, "epsilon": 0.001, "name": "batch_normalization_16", "moving_variance_initializer": {"config": {}, "class_name": "Ones"}, "beta_constraint": null, "beta_initializer": {"config": {}, "class_name": "Zeros"}, "trainable": false, "gamma_initializer": {"config": {}, "class_name": "Ones"}}, "name": "batch_normalization_16", "class_name": "BatchNormalization"}, {"inbound_nodes": [[["batch_normalization_16", 0, 0, {}]]], "config": {"activation": "relu", "name": "activation_16", "trainable": false}, "name": "activation_16", "class_name": "Activation"}, {"inbound_nodes": [[["mixed0", 0, 0, {}]]], "config": {"bias_constraint": null, "bias_regularizer": null, "dilation_rate": [1, 1], "kernel_constraint": null, "kernel_initializer": {"config": {"scale": 1.0, "mode": "fan_avg", "distribution": "uniform", "seed": null}, "class_name": "VarianceScaling"}, "kernel_regularizer": null, "trainable": false, "activation": "linear", "activity_regularizer": null, "filters": 48, "padding": "same", "strides": [1, 1], "bias_initializer": {"config": {}, "class_name": "Zeros"}, "use_bias": false, "data_format": "channels_last", "kernel_size": [1, 1], "name": "conv2d_14"}, "name": "conv2d_14", "class_name": "Conv2D"}, {"inbound_nodes": [[["activation_16", 0, 0, {}]]], "config": {"bias_constraint": null, "bias_regularizer": null, "dilation_rate": [1, 1], "kernel_constraint": null, "kernel_initializer": {"config": {"scale": 1.0, "mode": "fan_avg", "distribution": "uniform", "seed": null}, "class_name": "VarianceScaling"}, "kernel_regularizer": null, "trainable": false, "activation": "linear", "activity_regularizer": null, "filters": 96, "padding": "same", "strides": [1, 1], "bias_initializer": {"config": {}, "class_name": "Zeros"}, "use_bias": false, "data_format": "channels_last", "kernel_size": [3, 3], "name": "conv2d_17"}, "name": "conv2d_17", "class_name": "Conv2D"}, {"inbound_nodes": [[["conv2d_14", 0, 0, {}]]], "config": {"scale": false, "momentum": 0.99, "gamma_regularizer": null, "axis": 3, "gamma_constraint": null, "center": true, "beta_regularizer": null, "moving_mean_initializer": {"config": {}, "class_name": "Zeros"}, "epsilon": 0.001, "name": "batch_normalization_14", "moving_variance_initializer": {"config": {}, "class_name": "Ones"}, "beta_constraint": null, "beta_initializer": {"config": {}, "class_name": "Zeros"}, "trainable": false, "gamma_initializer": {"config": {}, "class_name": "Ones"}}, "name": "batch_normalization_14", "class_name": "BatchNormalization"}, {"inbound_nodes": [[["conv2d_17", 0, 0, {}]]], "config": {"scale": false, "momentum": 0.99, "gamma_regularizer": null, "axis": 3, "gamma_constraint": null, "center": true, "beta_regularizer": null, "moving_mean_initializer": {"config": {}, "class_name": "Zeros"}, "epsilon": 0.001, "name": "batch_normalization_17", "moving_variance_initializer": {"config": {}, "class_name": "Ones"}, "beta_constraint": null, "beta_initializer": {"config": {}, "class_name": "Zeros"}, "trainable": false, "gamma_initializer": {"config": {}, "class_name": "Ones"}}, "name": "batch_normalization_17", "class_name": "BatchNormalization"}, {"inbound_nodes": [[["batch_normalization_14", 0, 0, {}]]], "config": {"activation": "relu", "name": "activation_14", "trainable": false}, "name": "activation_14", "class_name": "Activation"}, {"inbound_nodes": [[["batch_normalization_17", 0, 0, {}]]], "config": {"activation": "relu", "name": "activation_17", "trainable": false}, "name": "activation_17", "class_name": "Activation"}, {"inbound_nodes": [[["mixed0", 0, 0, {}]]], "config": {"name": "average_pooling2d_2", "data_format": "channels_last", "padding": "same", "strides": [1, 1], "trainable": false, "pool_size": [3, 3]}, "name": "average_pooling2d_2", "class_name": "AveragePooling2D"}, {"inbound_nodes": [[["mixed0", 0, 0, {}]]], "config": {"bias_constraint": null, "bias_regularizer": null, "dilation_rate": [1, 1], "kernel_constraint": null, "kernel_initializer": {"config": {"scale": 1.0, "mode": "fan_avg", "distribution": "uniform", "seed": null}, "class_name": "VarianceScaling"}, "kernel_regularizer": null, "trainable": false, "activation": "linear", "activity_regularizer": null, "filters": 64, "padding": "same", "strides": [1, 1], "bias_initializer": {"config": {}, "class_name": "Zeros"}, "use_bias": false, "data_format": "channels_last", "kernel_size": [1, 1], "name": "conv2d_13"}, "name": "conv2d_13", "class_name": "Conv2D"}, {"inbound_nodes": [[["activation_14", 0, 0, {}]]], "config": {"bias_constraint": null, "bias_regularizer": null, "dilation_rate": [1, 1], "kernel_constraint": null, "kernel_initializer": {"config": {"scale": 1.0, "mode": "fan_avg", "distribution": "uniform", "seed": null}, "class_name": "VarianceScaling"}, "kernel_regularizer": null, "trainable": false, "activation": "linear", "activity_regularizer": null, "filters": 64, "padding": "same", "strides": [1, 1], "bias_initializer": {"config": {}, "class_name": "Zeros"}, "use_bias": false, "data_format": "channels_last", "kernel_size": [5, 5], "name": "conv2d_15"}, "name": "conv2d_15", "class_name": "Conv2D"}, {"inbound_nodes": [[["activation_17", 0, 0, {}]]], "config": {"bias_constraint": null, "bias_regularizer": null, "dilation_rate": [1, 1], "kernel_constraint": null, "kernel_initializer": {"config": {"scale": 1.0, "mode": "fan_avg", "distribution": "uniform", "seed": null}, "class_name": "VarianceScaling"}, "kernel_regularizer": null, "trainable": false, "activation": "linear", "activity_regularizer": null, "filters": 96, "padding": "same", "strides": [1, 1], "bias_initializer": {"config": {}, "class_name": "Zeros"}, "use_bias": false, "data_format": "channels_last", "kernel_size": [3, 3], "name": "conv2d_18"}, "name": "conv2d_18", "class_name": "Conv2D"}, {"inbound_nodes": [[["average_pooling2d_2", 0, 0, {}]]], "config": {"bias_constraint": null, "bias_regularizer": null, "dilation_rate": [1, 1], "kernel_constraint": null, "kernel_initializer": {"config": {"scale": 1.0, "mode": "fan_avg", "distribution": "uniform", "seed": null}, "class_name": "VarianceScaling"}, "kernel_regularizer": null, "trainable": false, "activation": "linear", "activity_regularizer": null, "filters": 64, "padding": "same", "strides": [1, 1], "bias_initializer": {"config": {}, "class_name": "Zeros"}, "use_bias": false, "data_format": "channels_last", "kernel_size": [1, 1], "name": "conv2d_19"}, "name": "conv2d_19", "class_name": "Conv2D"}, {"inbound_nodes": [[["conv2d_13", 0, 0, {}]]], "config": {"scale": false, "momentum": 0.99, "gamma_regularizer": null, "axis": 3, "gamma_constraint": null, "center": true, "beta_regularizer": null, "moving_mean_initializer": {"config": {}, "class_name": "Zeros"}, "epsilon": 0.001, "name": "batch_normalization_13", "moving_variance_initializer": {"config": {}, "class_name": "Ones"}, "beta_constraint": null, "beta_initializer": {"config": {}, "class_name": "Zeros"}, "trainable": false, "gamma_initializer": {"config": {}, "class_name": "Ones"}}, "name": "batch_normalization_13", "class_name": "BatchNormalization"}, {"inbound_nodes": [[["conv2d_15", 0, 0, {}]]], "config": {"scale": false, "momentum": 0.99, "gamma_regularizer": null, "axis": 3, "gamma_constraint": null, "center": true, "beta_regularizer": null, "moving_mean_initializer": {"config": {}, "class_name": "Zeros"}, "epsilon": 0.001, "name": "batch_normalization_15", "moving_variance_initializer": {"config": {}, "class_name": "Ones"}, "beta_constraint": null, "beta_initializer": {"config": {}, "class_name": "Zeros"}, "trainable": false, "gamma_initializer": {"config": {}, "class_name": "Ones"}}, "name": "batch_normalization_15", "class_name": "BatchNormalization"}, {"inbound_nodes": [[["conv2d_18", 0, 0, {}]]], "config": {"scale": false, "momentum": 0.99, "gamma_regularizer": null, "axis": 3, "gamma_constraint": null, "center": true, "beta_regularizer": null, "moving_mean_initializer": {"config": {}, "class_name": "Zeros"}, "epsilon": 0.001, "name": "batch_normalization_18", "moving_variance_initializer": {"config": {}, "class_name": "Ones"}, "beta_constraint": null, "beta_initializer": {"config": {}, "class_name": "Zeros"}, "trainable": false, "gamma_initializer": {"config": {}, "class_name": "Ones"}}, "name": "batch_normalization_18", "class_name": "BatchNormalization"}, {"inbound_nodes": [[["conv2d_19", 0, 0, {}]]], "config": {"scale": false, "momentum": 0.99, "gamma_regularizer": null, "axis": 3, "gamma_constraint": null, "center": true, "beta_regularizer": null, "moving_mean_initializer": {"config": {}, "class_name": "Zeros"}, "epsilon": 0.001, "name": "batch_normalization_19", "moving_variance_initializer": {"config": {}, "class_name": "Ones"}, "beta_constraint": null, "beta_initializer": {"config": {}, "class_name": "Zeros"}, "trainable": false, "gamma_initializer": {"config": {}, "class_name": "Ones"}}, "name": "batch_normalization_19", "class_name": "BatchNormalization"}, {"inbound_nodes": [[["batch_normalization_13", 0, 0, {}]]], "config": {"activation": "relu", "name": "activation_13", "trainable": false}, "name": "activation_13", "class_name": "Activation"}, {"inbound_nodes": [[["batch_normalization_15", 0, 0, {}]]], "config": {"activation": "relu", "name": "activation_15", "trainable": false}, "name": "activation_15", "class_name": "Activation"}, {"inbound_nodes": [[["batch_normalization_18", 0, 0, {}]]], "config": {"activation": "relu", "name": "activation_18", "trainable": false}, "name": "activation_18", "class_name": "Activation"}, {"inbound_nodes": [[["batch_normalization_19", 0, 0, {}]]], "config": {"activation": "relu", "name": "activation_19", "trainable": false}, "name": "activation_19", "class_name": "Activation"}, {"inbound_nodes": [[["activation_13", 0, 0, {}], ["activation_15", 0, 0, {}], ["activation_18", 0, 0, {}], ["activation_19", 0, 0, {}]]], "config": {"name": "mixed1", "axis": 3, "trainable": false}, "name": "mixed1", "class_name": "Concatenate"}, {"inbound_nodes": [[["mixed1", 0, 0, {}]]], "config": {"bias_constraint": null, "bias_regularizer": null, "dilation_rate": [1, 1], "kernel_constraint": null, "kernel_initializer": {"config": {"scale": 1.0, "mode": "fan_avg", "distribution": "uniform", "seed": null}, "class_name": "VarianceScaling"}, "kernel_regularizer": null, "trainable": false, "activation": "linear", "activity_regularizer": null, "filters": 64, "padding": "same", "strides": [1, 1], "bias_initializer": {"config": {}, "class_name": "Zeros"}, "use_bias": false, "data_format": "channels_last", "kernel_size": [1, 1], "name": "conv2d_23"}, "name": "conv2d_23", "class_name": "Conv2D"}, {"inbound_nodes": [[["conv2d_23", 0, 0, {}]]], "config": {"scale": false, "momentum": 0.99, "gamma_regularizer": null, "axis": 3, "gamma_constraint": null, "center": true, "beta_regularizer": null, "moving_mean_initializer": {"config": {}, "class_name": "Zeros"}, "epsilon": 0.001, "name": "batch_normalization_23", "moving_variance_initializer": {"config": {}, "class_name": "Ones"}, "beta_constraint": null, "beta_initializer": {"config": {}, "class_name": "Zeros"}, "trainable": false, "gamma_initializer": {"config": {}, "class_name": "Ones"}}, "name": "batch_normalization_23", "class_name": "BatchNormalization"}, {"inbound_nodes": [[["batch_normalization_23", 0, 0, {}]]], "config": {"activation": "relu", "name": "activation_23", "trainable": false}, "name": "activation_23", "class_name": "Activation"}, {"inbound_nodes": [[["mixed1", 0, 0, {}]]], "config": {"bias_constraint": null, "bias_regularizer": null, "dilation_rate": [1, 1], "kernel_constraint": null, "kernel_initializer": {"config": {"scale": 1.0, "mode": "fan_avg", "distribution": "uniform", "seed": null}, "class_name": "VarianceScaling"}, "kernel_regularizer": null, "trainable": false, "activation": "linear", "activity_regularizer": null, "filters": 48, "padding": "same", "strides": [1, 1], "bias_initializer": {"config": {}, "class_name": "Zeros"}, "use_bias": false, "data_format": "channels_last", "kernel_size": [1, 1], "name": "conv2d_21"}, "name": "conv2d_21", "class_name": "Conv2D"}, {"inbound_nodes": [[["activation_23", 0, 0, {}]]], "config": {"bias_constraint": null, "bias_regularizer": null, "dilation_rate": [1, 1], "kernel_constraint": null, "kernel_initializer": {"config": {"scale": 1.0, "mode": "fan_avg", "distribution": "uniform", "seed": null}, "class_name": "VarianceScaling"}, "kernel_regularizer": null, "trainable": false, "activation": "linear", "activity_regularizer": null, "filters": 96, "padding": "same", "strides": [1, 1], "bias_initializer": {"config": {}, "class_name": "Zeros"}, "use_bias": false, "data_format": "channels_last", "kernel_size": [3, 3], "name": "conv2d_24"}, "name": "conv2d_24", "class_name": "Conv2D"}, {"inbound_nodes": [[["conv2d_21", 0, 0, {}]]], "config": {"scale": false, "momentum": 0.99, "gamma_regularizer": null, "axis": 3, "gamma_constraint": null, "center": true, "beta_regularizer": null, "moving_mean_initializer": {"config": {}, "class_name": "Zeros"}, "epsilon": 0.001, "name": "batch_normalization_21", "moving_variance_initializer": {"config": {}, "class_name": "Ones"}, "beta_constraint": null, "beta_initializer": {"config": {}, "class_name": "Zeros"}, "trainable": false, "gamma_initializer": {"config": {}, "class_name": "Ones"}}, "name": "batch_normalization_21", "class_name": "BatchNormalization"}, {"inbound_nodes": [[["conv2d_24", 0, 0, {}]]], "config": {"scale": false, "momentum": 0.99, "gamma_regularizer": null, "axis": 3, "gamma_constraint": null, "center": true, "beta_regularizer": null, "moving_mean_initializer": {"config": {}, "class_name": "Zeros"}, "epsilon": 0.001, "name": "batch_normalization_24", "moving_variance_initializer": {"config": {}, "class_name": "Ones"}, "beta_constraint": null, "beta_initializer": {"config": {}, "class_name": "Zeros"}, "trainable": false, "gamma_initializer": {"config": {}, "class_name": "Ones"}}, "name": "batch_normalization_24", "class_name": "BatchNormalization"}, {"inbound_nodes": [[["batch_normalization_21", 0, 0, {}]]], "config": {"activation": "relu", "name": "activation_21", "trainable": false}, "name": "activation_21", "class_name": "Activation"}, {"inbound_nodes": [[["batch_normalization_24", 0, 0, {}]]], "config": {"activation": "relu", "name": "activation_24", "trainable": false}, "name": "activation_24", "class_name": "Activation"}, {"inbound_nodes": [[["mixed1", 0, 0, {}]]], "config": {"name": "average_pooling2d_3", "data_format": "channels_last", "padding": "same", "strides": [1, 1], "trainable": false, "pool_size": [3, 3]}, "name": "average_pooling2d_3", "class_name": "AveragePooling2D"}, {"inbound_nodes": [[["mixed1", 0, 0, {}]]], "config": {"bias_constraint": null, "bias_regularizer": null, "dilation_rate": [1, 1], "kernel_constraint": null, "kernel_initializer": {"config": {"scale": 1.0, "mode": "fan_avg", "distribution": "uniform", "seed": null}, "class_name": "VarianceScaling"}, "kernel_regularizer": null, "trainable": false, "activation": "linear", "activity_regularizer": null, "filters": 64, "padding": "same", "strides": [1, 1], "bias_initializer": {"config": {}, "class_name": "Zeros"}, "use_bias": false, "data_format": "channels_last", "kernel_size": [1, 1], "name": "conv2d_20"}, "name": "conv2d_20", "class_name": "Conv2D"}, {"inbound_nodes": [[["activation_21", 0, 0, {}]]], "config": {"bias_constraint": null, "bias_regularizer": null, "dilation_rate": [1, 1], "kernel_constraint": null, "kernel_initializer": {"config": {"scale": 1.0, "mode": "fan_avg", "distribution": "uniform", "seed": null}, "class_name": "VarianceScaling"}, "kernel_regularizer": null, "trainable": false, "activation": "linear", "activity_regularizer": null, "filters": 64, "padding": "same", "strides": [1, 1], "bias_initializer": {"config": {}, "class_name": "Zeros"}, "use_bias": false, "data_format": "channels_last", "kernel_size": [5, 5], "name": "conv2d_22"}, "name": "conv2d_22", "class_name": "Conv2D"}, {"inbound_nodes": [[["activation_24", 0, 0, {}]]], "config": {"bias_constraint": null, "bias_regularizer": null, "dilation_rate": [1, 1], "kernel_constraint": null, "kernel_initializer": {"config": {"scale": 1.0, "mode": "fan_avg", "distribution": "uniform", "seed": null}, "class_name": "VarianceScaling"}, "kernel_regularizer": null, "trainable": false, "activation": "linear", "activity_regularizer": null, "filters": 96, "padding": "same", "strides": [1, 1], "bias_initializer": {"config": {}, "class_name": "Zeros"}, "use_bias": false, "data_format": "channels_last", "kernel_size": [3, 3], "name": "conv2d_25"}, "name": "conv2d_25", "class_name": "Conv2D"}, {"inbound_nodes": [[["average_pooling2d_3", 0, 0, {}]]], "config": {"bias_constraint": null, "bias_regularizer": null, "dilation_rate": [1, 1], "kernel_constraint": null, "kernel_initializer": {"config": {"scale": 1.0, "mode": "fan_avg", "distribution": "uniform", "seed": null}, "class_name": "VarianceScaling"}, "kernel_regularizer": null, "trainable": false, "activation": "linear", "activity_regularizer": null, "filters": 64, "padding": "same", "strides": [1, 1], "bias_initializer": {"config": {}, "class_name": "Zeros"}, "use_bias": false, "data_format": "channels_last", "kernel_size": [1, 1], "name": "conv2d_26"}, "name": "conv2d_26", "class_name": "Conv2D"}, {"inbound_nodes": [[["conv2d_20", 0, 0, {}]]], "config": {"scale": false, "momentum": 0.99, "gamma_regularizer": null, "axis": 3, "gamma_constraint": null, "center": true, "beta_regularizer": null, "moving_mean_initializer": {"config": {}, "class_name": "Zeros"}, "epsilon": 0.001, "name": "batch_normalization_20", "moving_variance_initializer": {"config": {}, "class_name": "Ones"}, "beta_constraint": null, "beta_initializer": {"config": {}, "class_name": "Zeros"}, "trainable": false, "gamma_initializer": {"config": {}, "class_name": "Ones"}}, "name": "batch_normalization_20", "class_name": "BatchNormalization"}, {"inbound_nodes": [[["conv2d_22", 0, 0, {}]]], "config": {"scale": false, "momentum": 0.99, "gamma_regularizer": null, "axis": 3, "gamma_constraint": null, "center": true, "beta_regularizer": null, "moving_mean_initializer": {"config": {}, "class_name": "Zeros"}, "epsilon": 0.001, "name": "batch_normalization_22", "moving_variance_initializer": {"config": {}, "class_name": "Ones"}, "beta_constraint": null, "beta_initializer": {"config": {}, "class_name": "Zeros"}, "trainable": false, "gamma_initializer": {"config": {}, "class_name": "Ones"}}, "name": "batch_normalization_22", "class_name": "BatchNormalization"}, {"inbound_nodes": [[["conv2d_25", 0, 0, {}]]], "config": {"scale": false, "momentum": 0.99, "gamma_regularizer": null, "axis": 3, "gamma_constraint": null, "center": true, "beta_regularizer": null, "moving_mean_initializer": {"config": {}, "class_name": "Zeros"}, "epsilon": 0.001, "name": "batch_normalization_25", "moving_variance_initializer": {"config": {}, "class_name": "Ones"}, "beta_constraint": null, "beta_initializer": {"config": {}, "class_name": "Zeros"}, "trainable": false, "gamma_initializer": {"config": {}, "class_name": "Ones"}}, "name": "batch_normalization_25", "class_name": "BatchNormalization"}, {"inbound_nodes": [[["conv2d_26", 0, 0, {}]]], "config": {"scale": false, "momentum": 0.99, "gamma_regularizer": null, "axis": 3, "gamma_constraint": null, "center": true, "beta_regularizer": null, "moving_mean_initializer": {"config": {}, "class_name": "Zeros"}, "epsilon": 0.001, "name": "batch_normalization_26", "moving_variance_initializer": {"config": {}, "class_name": "Ones"}, "beta_constraint": null, "beta_initializer": {"config": {}, "class_name": "Zeros"}, "trainable": false, "gamma_initializer": {"config": {}, "class_name": "Ones"}}, "name": "batch_normalization_26", "class_name": "BatchNormalization"}, {"inbound_nodes": [[["batch_normalization_20", 0, 0, {}]]], "config": {"activation": "relu", "name": "activation_20", "trainable": false}, "name": "activation_20", "class_name": "Activation"}, {"inbound_nodes": [[["batch_normalization_22", 0, 0, {}]]], "config": {"activation": "relu", "name": "activation_22", "trainable": false}, "name": "activation_22", "class_name": "Activation"}, {"inbound_nodes": [[["batch_normalization_25", 0, 0, {}]]], "config": {"activation": "relu", "name": "activation_25", "trainable": false}, "name": "activation_25", "class_name": "Activation"}, {"inbound_nodes": [[["batch_normalization_26", 0, 0, {}]]], "config": {"activation": "relu", "name": "activation_26", "trainable": false}, "name": "activation_26", "class_name": "Activation"}, {"inbound_nodes": [[["activation_20", 0, 0, {}], ["activation_22", 0, 0, {}], ["activation_25", 0, 0, {}], ["activation_26", 0, 0, {}]]], "config": {"name": "mixed2", "axis": 3, "trainable": false}, "name": "mixed2", "class_name": "Concatenate"}, {"inbound_nodes": [[["mixed2", 0, 0, {}]]], "config": {"bias_constraint": null, "bias_regularizer": null, "dilation_rate": [1, 1], "kernel_constraint": null, "kernel_initializer": {"config": {"scale": 1.0, "mode": "fan_avg", "distribution": "uniform", "seed": null}, "class_name": "VarianceScaling"}, "kernel_regularizer": null, "trainable": false, "activation": "linear", "activity_regularizer": null, "filters": 64, "padding": "same", "strides": [1, 1], "bias_initializer": {"config": {}, "class_name": "Zeros"}, "use_bias": false, "data_format": "channels_last", "kernel_size": [1, 1], "name": "conv2d_28"}, "name": "conv2d_28", "class_name": "Conv2D"}, {"inbound_nodes": [[["conv2d_28", 0, 0, {}]]], "config": {"scale": false, "momentum": 0.99, "gamma_regularizer": null, "axis": 3, "gamma_constraint": null, "center": true, "beta_regularizer": null, "moving_mean_initializer": {"config": {}, "class_name": "Zeros"}, "epsilon": 0.001, "name": "batch_normalization_28", "moving_variance_initializer": {"config": {}, "class_name": "Ones"}, "beta_constraint": null, "beta_initializer": {"config": {}, "class_name": "Zeros"}, "trainable": false, "gamma_initializer": {"config": {}, "class_name": "Ones"}}, "name": "batch_normalization_28", "class_name": "BatchNormalization"}, {"inbound_nodes": [[["batch_normalization_28", 0, 0, {}]]], "config": {"activation": "relu", "name": "activation_28", "trainable": false}, "name": "activation_28", "class_name": "Activation"}, {"inbound_nodes": [[["activation_28", 0, 0, {}]]], "config": {"bias_constraint": null, "bias_regularizer": null, "dilation_rate": [1, 1], "kernel_constraint": null, "kernel_initializer": {"config": {"scale": 1.0, "mode": "fan_avg", "distribution": "uniform", "seed": null}, "class_name": "VarianceScaling"}, "kernel_regularizer": null, "trainable": false, "activation": "linear", "activity_regularizer": null, "filters": 96, "padding": "same", "strides": [1, 1], "bias_initializer": {"config": {}, "class_name": "Zeros"}, "use_bias": false, "data_format": "channels_last", "kernel_size": [3, 3], "name": "conv2d_29"}, "name": "conv2d_29", "class_name": "Conv2D"}, {"inbound_nodes": [[["conv2d_29", 0, 0, {}]]], "config": {"scale": false, "momentum": 0.99, "gamma_regularizer": null, "axis": 3, "gamma_constraint": null, "center": true, "beta_regularizer": null, "moving_mean_initializer": {"config": {}, "class_name": "Zeros"}, "epsilon": 0.001, "name": "batch_normalization_29", "moving_variance_initializer": {"config": {}, "class_name": "Ones"}, "beta_constraint": null, "beta_initializer": {"config": {}, "class_name": "Zeros"}, "trainable": false, "gamma_initializer": {"config": {}, "class_name": "Ones"}}, "name": "batch_normalization_29", "class_name": "BatchNormalization"}, {"inbound_nodes": [[["batch_normalization_29", 0, 0, {}]]], "config": {"activation": "relu", "name": "activation_29", "trainable": false}, "name": "activation_29", "class_name": "Activation"}, {"inbound_nodes": [[["mixed2", 0, 0, {}]]], "config": {"bias_constraint": null, "bias_regularizer": null, "dilation_rate": [1, 1], "kernel_constraint": null, "kernel_initializer": {"config": {"scale": 1.0, "mode": "fan_avg", "distribution": "uniform", "seed": null}, "class_name": "VarianceScaling"}, "kernel_regularizer": null, "trainable": false, "activation": "linear", "activity_regularizer": null, "filters": 384, "padding": "valid", "strides": [2, 2], "bias_initializer": {"config": {}, "class_name": "Zeros"}, "use_bias": false, "data_format": "channels_last", "kernel_size": [3, 3], "name": "conv2d_27"}, "name": "conv2d_27", "class_name": "Conv2D"}, {"inbound_nodes": [[["activation_29", 0, 0, {}]]], "config": {"bias_constraint": null, "bias_regularizer": null, "dilation_rate": [1, 1], "kernel_constraint": null, "kernel_initializer": {"config": {"scale": 1.0, "mode": "fan_avg", "distribution": "uniform", "seed": null}, "class_name": "VarianceScaling"}, "kernel_regularizer": null, "trainable": false, "activation": "linear", "activity_regularizer": null, "filters": 96, "padding": "valid", "strides": [2, 2], "bias_initializer": {"config": {}, "class_name": "Zeros"}, "use_bias": false, "data_format": "channels_last", "kernel_size": [3, 3], "name": "conv2d_30"}, "name": "conv2d_30", "class_name": "Conv2D"}, {"inbound_nodes": [[["conv2d_27", 0, 0, {}]]], "config": {"scale": false, "momentum": 0.99, "gamma_regularizer": null, "axis": 3, "gamma_constraint": null, "center": true, "beta_regularizer": null, "moving_mean_initializer": {"config": {}, "class_name": "Zeros"}, "epsilon": 0.001, "name": "batch_normalization_27", "moving_variance_initializer": {"config": {}, "class_name": "Ones"}, "beta_constraint": null, "beta_initializer": {"config": {}, "class_name": "Zeros"}, "trainable": false, "gamma_initializer": {"config": {}, "class_name": "Ones"}}, "name": "batch_normalization_27", "class_name": "BatchNormalization"}, {"inbound_nodes": [[["conv2d_30", 0, 0, {}]]], "config": {"scale": false, "momentum": 0.99, "gamma_regularizer": null, "axis": 3, "gamma_constraint": null, "center": true, "beta_regularizer": null, "moving_mean_initializer": {"config": {}, "class_name": "Zeros"}, "epsilon": 0.001, "name": "batch_normalization_30", "moving_variance_initializer": {"config": {}, "class_name": "Ones"}, "beta_constraint": null, "beta_initializer": {"config": {}, "class_name": "Zeros"}, "trainable": false, "gamma_initializer": {"config": {}, "class_name": "Ones"}}, "name": "batch_normalization_30", "class_name": "BatchNormalization"}, {"inbound_nodes": [[["batch_normalization_27", 0, 0, {}]]], "config": {"activation": "relu", "name": "activation_27", "trainable": false}, "name": "activation_27", "class_name": "Activation"}, {"inbound_nodes": [[["batch_normalization_30", 0, 0, {}]]], "config": {"activation": "relu", "name": "activation_30", "trainable": false}, "name": "activation_30", "class_name": "Activation"}, {"inbound_nodes": [[["mixed2", 0, 0, {}]]], "config": {"name": "max_pooling2d_3", "data_format": "channels_last", "padding": "valid", "strides": [2, 2], "trainable": false, "pool_size": [3, 3]}, "name": "max_pooling2d_3", "class_name": "MaxPooling2D"}, {"inbound_nodes": [[["activation_27", 0, 0, {}], ["activation_30", 0, 0, {}], ["max_pooling2d_3", 0, 0, {}]]], "config": {"name": "mixed3", "axis": 3, "trainable": false}, "name": "mixed3", "class_name": "Concatenate"}, {"inbound_nodes": [[["mixed3", 0, 0, {}]]], "config": {"bias_constraint": null, "bias_regularizer": null, "dilation_rate": [1, 1], "kernel_constraint": null, "kernel_initializer": {"config": {"scale": 1.0, "mode": "fan_avg", "distribution": "uniform", "seed": null}, "class_name": "VarianceScaling"}, "kernel_regularizer": null, "trainable": false, "activation": "linear", "activity_regularizer": null, "filters": 128, "padding": "same", "strides": [1, 1], "bias_initializer": {"config": {}, "class_name": "Zeros"}, "use_bias": false, "data_format": "channels_last", "kernel_size": [1, 1], "name": "conv2d_35"}, "name": "conv2d_35", "class_name": "Conv2D"}, {"inbound_nodes": [[["conv2d_35", 0, 0, {}]]], "config": {"scale": false, "momentum": 0.99, "gamma_regularizer": null, "axis": 3, "gamma_constraint": null, "center": true, "beta_regularizer": null, "moving_mean_initializer": {"config": {}, "class_name": "Zeros"}, "epsilon": 0.001, "name": "batch_normalization_35", "moving_variance_initializer": {"config": {}, "class_name": "Ones"}, "beta_constraint": null, "beta_initializer": {"config": {}, "class_name": "Zeros"}, "trainable": false, "gamma_initializer": {"config": {}, "class_name": "Ones"}}, "name": "batch_normalization_35", "class_name": "BatchNormalization"}, {"inbound_nodes": [[["batch_normalization_35", 0, 0, {}]]], "config": {"activation": "relu", "name": "activation_35", "trainable": false}, "name": "activation_35", "class_name": "Activation"}, {"inbound_nodes": [[["activation_35", 0, 0, {}]]], "config": {"bias_constraint": null, "bias_regularizer": null, "dilation_rate": [1, 1], "kernel_constraint": null, "kernel_initializer": {"config": {"scale": 1.0, "mode": "fan_avg", "distribution": "uniform", "seed": null}, "class_name": "VarianceScaling"}, "kernel_regularizer": null, "trainable": false, "activation": "linear", "activity_regularizer": null, "filters": 128, "padding": "same", "strides": [1, 1], "bias_initializer": {"config": {}, "class_name": "Zeros"}, "use_bias": false, "data_format": "channels_last", "kernel_size": [7, 1], "name": "conv2d_36"}, "name": "conv2d_36", "class_name": "Conv2D"}, {"inbound_nodes": [[["conv2d_36", 0, 0, {}]]], "config": {"scale": false, "momentum": 0.99, "gamma_regularizer": null, "axis": 3, "gamma_constraint": null, "center": true, "beta_regularizer": null, "moving_mean_initializer": {"config": {}, "class_name": "Zeros"}, "epsilon": 0.001, "name": "batch_normalization_36", "moving_variance_initializer": {"config": {}, "class_name": "Ones"}, "beta_constraint": null, "beta_initializer": {"config": {}, "class_name": "Zeros"}, "trainable": false, "gamma_initializer": {"config": {}, "class_name": "Ones"}}, "name": "batch_normalization_36", "class_name": "BatchNormalization"}, {"inbound_nodes": [[["batch_normalization_36", 0, 0, {}]]], "config": {"activation": "relu", "name": "activation_36", "trainable": false}, "name": "activation_36", "class_name": "Activation"}, {"inbound_nodes": [[["mixed3", 0, 0, {}]]], "config": {"bias_constraint": null, "bias_regularizer": null, "dilation_rate": [1, 1], "kernel_constraint": null, "kernel_initializer": {"config": {"scale": 1.0, "mode": "fan_avg", "distribution": "uniform", "seed": null}, "class_name": "VarianceScaling"}, "kernel_regularizer": null, "trainable": false, "activation": "linear", "activity_regularizer": null, "filters": 128, "padding": "same", "strides": [1, 1], "bias_initializer": {"config": {}, "class_name": "Zeros"}, "use_bias": false, "data_format": "channels_last", "kernel_size": [1, 1], "name": "conv2d_32"}, "name": "conv2d_32", "class_name": "Conv2D"}, {"inbound_nodes": [[["activation_36", 0, 0, {}]]], "config": {"bias_constraint": null, "bias_regularizer": null, "dilation_rate": [1, 1], "kernel_constraint": null, "kernel_initializer": {"config": {"scale": 1.0, "mode": "fan_avg", "distribution": "uniform", "seed": null}, "class_name": "VarianceScaling"}, "kernel_regularizer": null, "trainable": false, "activation": "linear", "activity_regularizer": null, "filters": 128, "padding": "same", "strides": [1, 1], "bias_initializer": {"config": {}, "class_name": "Zeros"}, "use_bias": false, "data_format": "channels_last", "kernel_size": [1, 7], "name": "conv2d_37"}, "name": "conv2d_37", "class_name": "Conv2D"}, {"inbound_nodes": [[["conv2d_32", 0, 0, {}]]], "config": {"scale": false, "momentum": 0.99, "gamma_regularizer": null, "axis": 3, "gamma_constraint": null, "center": true, "beta_regularizer": null, "moving_mean_initializer": {"config": {}, "class_name": "Zeros"}, "epsilon": 0.001, "name": "batch_normalization_32", "moving_variance_initializer": {"config": {}, "class_name": "Ones"}, "beta_constraint": null, "beta_initializer": {"config": {}, "class_name": "Zeros"}, "trainable": false, "gamma_initializer": {"config": {}, "class_name": "Ones"}}, "name": "batch_normalization_32", "class_name": "BatchNormalization"}, {"inbound_nodes": [[["conv2d_37", 0, 0, {}]]], "config": {"scale": false, "momentum": 0.99, "gamma_regularizer": null, "axis": 3, "gamma_constraint": null, "center": true, "beta_regularizer": null, "moving_mean_initializer": {"config": {}, "class_name": "Zeros"}, "epsilon": 0.001, "name": "batch_normalization_37", "moving_variance_initializer": {"config": {}, "class_name": "Ones"}, "beta_constraint": null, "beta_initializer": {"config": {}, "class_name": "Zeros"}, "trainable": false, "gamma_initializer": {"config": {}, "class_name": "Ones"}}, "name": "batch_normalization_37", "class_name": "BatchNormalization"}, {"inbound_nodes": [[["batch_normalization_32", 0, 0, {}]]], "config": {"activation": "relu", "name": "activation_32", "trainable": false}, "name": "activation_32", "class_name": "Activation"}, {"inbound_nodes": [[["batch_normalization_37", 0, 0, {}]]], "config": {"activation": "relu", "name": "activation_37", "trainable": false}, "name": "activation_37", "class_name": "Activation"}, {"inbound_nodes": [[["activation_32", 0, 0, {}]]], "config": {"bias_constraint": null, "bias_regularizer": null, "dilation_rate": [1, 1], "kernel_constraint": null, "kernel_initializer": {"config": {"scale": 1.0, "mode": "fan_avg", "distribution": "uniform", "seed": null}, "class_name": "VarianceScaling"}, "kernel_regularizer": null, "trainable": false, "activation": "linear", "activity_regularizer": null, "filters": 128, "padding": "same", "strides": [1, 1], "bias_initializer": {"config": {}, "class_name": "Zeros"}, "use_bias": false, "data_format": "channels_last", "kernel_size": [1, 7], "name": "conv2d_33"}, "name": "conv2d_33", "class_name": "Conv2D"}, {"inbound_nodes": [[["activation_37", 0, 0, {}]]], "config": {"bias_constraint": null, "bias_regularizer": null, "dilation_rate": [1, 1], "kernel_constraint": null, "kernel_initializer": {"config": {"scale": 1.0, "mode": "fan_avg", "distribution": "uniform", "seed": null}, "class_name": "VarianceScaling"}, "kernel_regularizer": null, "trainable": false, "activation": "linear", "activity_regularizer": null, "filters": 128, "padding": "same", "strides": [1, 1], "bias_initializer": {"config": {}, "class_name": "Zeros"}, "use_bias": false, "data_format": "channels_last", "kernel_size": [7, 1], "name": "conv2d_38"}, "name": "conv2d_38", "class_name": "Conv2D"}, {"inbound_nodes": [[["conv2d_33", 0, 0, {}]]], "config": {"scale": false, "momentum": 0.99, "gamma_regularizer": null, "axis": 3, "gamma_constraint": null, "center": true, "beta_regularizer": null, "moving_mean_initializer": {"config": {}, "class_name": "Zeros"}, "epsilon": 0.001, "name": "batch_normalization_33", "moving_variance_initializer": {"config": {}, "class_name": "Ones"}, "beta_constraint": null, "beta_initializer": {"config": {}, "class_name": "Zeros"}, "trainable": false, "gamma_initializer": {"config": {}, "class_name": "Ones"}}, "name": "batch_normalization_33", "class_name": "BatchNormalization"}, {"inbound_nodes": [[["conv2d_38", 0, 0, {}]]], "config": {"scale": false, "momentum": 0.99, "gamma_regularizer": null, "axis": 3, "gamma_constraint": null, "center": true, "beta_regularizer": null, "moving_mean_initializer": {"config": {}, "class_name": "Zeros"}, "epsilon": 0.001, "name": "batch_normalization_38", "moving_variance_initializer": {"config": {}, "class_name": "Ones"}, "beta_constraint": null, "beta_initializer": {"config": {}, "class_name": "Zeros"}, "trainable": false, "gamma_initializer": {"config": {}, "class_name": "Ones"}}, "name": "batch_normalization_38", "class_name": "BatchNormalization"}, {"inbound_nodes": [[["batch_normalization_33", 0, 0, {}]]], "config": {"activation": "relu", "name": "activation_33", "trainable": false}, "name": "activation_33", "class_name": "Activation"}, {"inbound_nodes": [[["batch_normalization_38", 0, 0, {}]]], "config": {"activation": "relu", "name": "activation_38", "trainable": false}, "name": "activation_38", "class_name": "Activation"}, {"inbound_nodes": [[["mixed3", 0, 0, {}]]], "config": {"name": "average_pooling2d_4", "data_format": "channels_last", "padding": "same", "strides": [1, 1], "trainable": false, "pool_size": [3, 3]}, "name": "average_pooling2d_4", "class_name": "AveragePooling2D"}, {"inbound_nodes": [[["mixed3", 0, 0, {}]]], "config": {"bias_constraint": null, "bias_regularizer": null, "dilation_rate": [1, 1], "kernel_constraint": null, "kernel_initializer": {"config": {"scale": 1.0, "mode": "fan_avg", "distribution": "uniform", "seed": null}, "class_name": "VarianceScaling"}, "kernel_regularizer": null, "trainable": false, "activation": "linear", "activity_regularizer": null, "filters": 192, "padding": "same", "strides": [1, 1], "bias_initializer": {"config": {}, "class_name": "Zeros"}, "use_bias": false, "data_format": "channels_last", "kernel_size": [1, 1], "name": "conv2d_31"}, "name": "conv2d_31", "class_name": "Conv2D"}, {"inbound_nodes": [[["activation_33", 0, 0, {}]]], "config": {"bias_constraint": null, "bias_regularizer": null, "dilation_rate": [1, 1], "kernel_constraint": null, "kernel_initializer": {"config": {"scale": 1.0, "mode": "fan_avg", "distribution": "uniform", "seed": null}, "class_name": "VarianceScaling"}, "kernel_regularizer": null, "trainable": false, "activation": "linear", "activity_regularizer": null, "filters": 192, "padding": "same", "strides": [1, 1], "bias_initializer": {"config": {}, "class_name": "Zeros"}, "use_bias": false, "data_format": "channels_last", "kernel_size": [7, 1], "name": "conv2d_34"}, "name": "conv2d_34", "class_name": "Conv2D"}, {"inbound_nodes": [[["activation_38", 0, 0, {}]]], "config": {"bias_constraint": null, "bias_regularizer": null, "dilation_rate": [1, 1], "kernel_constraint": null, "kernel_initializer": {"config": {"scale": 1.0, "mode": "fan_avg", "distribution": "uniform", "seed": null}, "class_name": "VarianceScaling"}, "kernel_regularizer": null, "trainable": false, "activation": "linear", "activity_regularizer": null, "filters": 192, "padding": "same", "strides": [1, 1], "bias_initializer": {"config": {}, "class_name": "Zeros"}, "use_bias": false, "data_format": "channels_last", "kernel_size": [1, 7], "name": "conv2d_39"}, "name": "conv2d_39", "class_name": "Conv2D"}, {"inbound_nodes": [[["average_pooling2d_4", 0, 0, {}]]], "config": {"bias_constraint": null, "bias_regularizer": null, "dilation_rate": [1, 1], "kernel_constraint": null, "kernel_initializer": {"config": {"scale": 1.0, "mode": "fan_avg", "distribution": "uniform", "seed": null}, "class_name": "VarianceScaling"}, "kernel_regularizer": null, "trainable": false, "activation": "linear", "activity_regularizer": null, "filters": 192, "padding": "same", "strides": [1, 1], "bias_initializer": {"config": {}, "class_name": "Zeros"}, "use_bias": false, "data_format": "channels_last", "kernel_size": [1, 1], "name": "conv2d_40"}, "name": "conv2d_40", "class_name": "Conv2D"}, {"inbound_nodes": [[["conv2d_31", 0, 0, {}]]], "config": {"scale": false, "momentum": 0.99, "gamma_regularizer": null, "axis": 3, "gamma_constraint": null, "center": true, "beta_regularizer": null, "moving_mean_initializer": {"config": {}, "class_name": "Zeros"}, "epsilon": 0.001, "name": "batch_normalization_31", "moving_variance_initializer": {"config": {}, "class_name": "Ones"}, "beta_constraint": null, "beta_initializer": {"config": {}, "class_name": "Zeros"}, "trainable": false, "gamma_initializer": {"config": {}, "class_name": "Ones"}}, "name": "batch_normalization_31", "class_name": "BatchNormalization"}, {"inbound_nodes": [[["conv2d_34", 0, 0, {}]]], "config": {"scale": false, "momentum": 0.99, "gamma_regularizer": null, "axis": 3, "gamma_constraint": null, "center": true, "beta_regularizer": null, "moving_mean_initializer": {"config": {}, "class_name": "Zeros"}, "epsilon": 0.001, "name": "batch_normalization_34", "moving_variance_initializer": {"config": {}, "class_name": "Ones"}, "beta_constraint": null, "beta_initializer": {"config": {}, "class_name": "Zeros"}, "trainable": false, "gamma_initializer": {"config": {}, "class_name": "Ones"}}, "name": "batch_normalization_34", "class_name": "BatchNormalization"}, {"inbound_nodes": [[["conv2d_39", 0, 0, {}]]], "config": {"scale": false, "momentum": 0.99, "gamma_regularizer": null, "axis": 3, "gamma_constraint": null, "center": true, "beta_regularizer": null, "moving_mean_initializer": {"config": {}, "class_name": "Zeros"}, "epsilon": 0.001, "name": "batch_normalization_39", "moving_variance_initializer": {"config": {}, "class_name": "Ones"}, "beta_constraint": null, "beta_initializer": {"config": {}, "class_name": "Zeros"}, "trainable": false, "gamma_initializer": {"config": {}, "class_name": "Ones"}}, "name": "batch_normalization_39", "class_name": "BatchNormalization"}, {"inbound_nodes": [[["conv2d_40", 0, 0, {}]]], "config": {"scale": false, "momentum": 0.99, "gamma_regularizer": null, "axis": 3, "gamma_constraint": null, "center": true, "beta_regularizer": null, "moving_mean_initializer": {"config": {}, "class_name": "Zeros"}, "epsilon": 0.001, "name": "batch_normalization_40", "moving_variance_initializer": {"config": {}, "class_name": "Ones"}, "beta_constraint": null, "beta_initializer": {"config": {}, "class_name": "Zeros"}, "trainable": false, "gamma_initializer": {"config": {}, "class_name": "Ones"}}, "name": "batch_normalization_40", "class_name": "BatchNormalization"}, {"inbound_nodes": [[["batch_normalization_31", 0, 0, {}]]], "config": {"activation": "relu", "name": "activation_31", "trainable": false}, "name": "activation_31", "class_name": "Activation"}, {"inbound_nodes": [[["batch_normalization_34", 0, 0, {}]]], "config": {"activation": "relu", "name": "activation_34", "trainable": false}, "name": "activation_34", "class_name": "Activation"}, {"inbound_nodes": [[["batch_normalization_39", 0, 0, {}]]], "config": {"activation": "relu", "name": "activation_39", "trainable": false}, "name": "activation_39", "class_name": "Activation"}, {"inbound_nodes": [[["batch_normalization_40", 0, 0, {}]]], "config": {"activation": "relu", "name": "activation_40", "trainable": false}, "name": "activation_40", "class_name": "Activation"}, {"inbound_nodes": [[["activation_31", 0, 0, {}], ["activation_34", 0, 0, {}], ["activation_39", 0, 0, {}], ["activation_40", 0, 0, {}]]], "config": {"name": "mixed4", "axis": 3, "trainable": false}, "name": "mixed4", "class_name": "Concatenate"}, {"inbound_nodes": [[["mixed4", 0, 0, {}]]], "config": {"bias_constraint": null, "bias_regularizer": null, "dilation_rate": [1, 1], "kernel_constraint": null, "kernel_initializer": {"config": {"scale": 1.0, "mode": "fan_avg", "distribution": "uniform", "seed": null}, "class_name": "VarianceScaling"}, "kernel_regularizer": null, "trainable": false, "activation": "linear", "activity_regularizer": null, "filters": 160, "padding": "same", "strides": [1, 1], "bias_initializer": {"config": {}, "class_name": "Zeros"}, "use_bias": false, "data_format": "channels_last", "kernel_size": [1, 1], "name": "conv2d_45"}, "name": "conv2d_45", "class_name": "Conv2D"}, {"inbound_nodes": [[["conv2d_45", 0, 0, {}]]], "config": {"scale": false, "momentum": 0.99, "gamma_regularizer": null, "axis": 3, "gamma_constraint": null, "center": true, "beta_regularizer": null, "moving_mean_initializer": {"config": {}, "class_name": "Zeros"}, "epsilon": 0.001, "name": "batch_normalization_45", "moving_variance_initializer": {"config": {}, "class_name": "Ones"}, "beta_constraint": null, "beta_initializer": {"config": {}, "class_name": "Zeros"}, "trainable": false, "gamma_initializer": {"config": {}, "class_name": "Ones"}}, "name": "batch_normalization_45", "class_name": "BatchNormalization"}, {"inbound_nodes": [[["batch_normalization_45", 0, 0, {}]]], "config": {"activation": "relu", "name": "activation_45", "trainable": false}, "name": "activation_45", "class_name": "Activation"}, {"inbound_nodes": [[["activation_45", 0, 0, {}]]], "config": {"bias_constraint": null, "bias_regularizer": null, "dilation_rate": [1, 1], "kernel_constraint": null, "kernel_initializer": {"config": {"scale": 1.0, "mode": "fan_avg", "distribution": "uniform", "seed": null}, "class_name": "VarianceScaling"}, "kernel_regularizer": null, "trainable": false, "activation": "linear", "activity_regularizer": null, "filters": 160, "padding": "same", "strides": [1, 1], "bias_initializer": {"config": {}, "class_name": "Zeros"}, "use_bias": false, "data_format": "channels_last", "kernel_size": [7, 1], "name": "conv2d_46"}, "name": "conv2d_46", "class_name": "Conv2D"}, {"inbound_nodes": [[["conv2d_46", 0, 0, {}]]], "config": {"scale": false, "momentum": 0.99, "gamma_regularizer": null, "axis": 3, "gamma_constraint": null, "center": true, "beta_regularizer": null, "moving_mean_initializer": {"config": {}, "class_name": "Zeros"}, "epsilon": 0.001, "name": "batch_normalization_46", "moving_variance_initializer": {"config": {}, "class_name": "Ones"}, "beta_constraint": null, "beta_initializer": {"config": {}, "class_name": "Zeros"}, "trainable": false, "gamma_initializer": {"config": {}, "class_name": "Ones"}}, "name": "batch_normalization_46", "class_name": "BatchNormalization"}, {"inbound_nodes": [[["batch_normalization_46", 0, 0, {}]]], "config": {"activation": "relu", "name": "activation_46", "trainable": false}, "name": "activation_46", "class_name": "Activation"}, {"inbound_nodes": [[["mixed4", 0, 0, {}]]], "config": {"bias_constraint": null, "bias_regularizer": null, "dilation_rate": [1, 1], "kernel_constraint": null, "kernel_initializer": {"config": {"scale": 1.0, "mode": "fan_avg", "distribution": "uniform", "seed": null}, "class_name": "VarianceScaling"}, "kernel_regularizer": null, "trainable": false, "activation": "linear", "activity_regularizer": null, "filters": 160, "padding": "same", "strides": [1, 1], "bias_initializer": {"config": {}, "class_name": "Zeros"}, "use_bias": false, "data_format": "channels_last", "kernel_size": [1, 1], "name": "conv2d_42"}, "name": "conv2d_42", "class_name": "Conv2D"}, {"inbound_nodes": [[["activation_46", 0, 0, {}]]], "config": {"bias_constraint": null, "bias_regularizer": null, "dilation_rate": [1, 1], "kernel_constraint": null, "kernel_initializer": {"config": {"scale": 1.0, "mode": "fan_avg", "distribution": "uniform", "seed": null}, "class_name": "VarianceScaling"}, "kernel_regularizer": null, "trainable": false, "activation": "linear", "activity_regularizer": null, "filters": 160, "padding": "same", "strides": [1, 1], "bias_initializer": {"config": {}, "class_name": "Zeros"}, "use_bias": false, "data_format": "channels_last", "kernel_size": [1, 7], "name": "conv2d_47"}, "name": "conv2d_47", "class_name": "Conv2D"}, {"inbound_nodes": [[["conv2d_42", 0, 0, {}]]], "config": {"scale": false, "momentum": 0.99, "gamma_regularizer": null, "axis": 3, "gamma_constraint": null, "center": true, "beta_regularizer": null, "moving_mean_initializer": {"config": {}, "class_name": "Zeros"}, "epsilon": 0.001, "name": "batch_normalization_42", "moving_variance_initializer": {"config": {}, "class_name": "Ones"}, "beta_constraint": null, "beta_initializer": {"config": {}, "class_name": "Zeros"}, "trainable": false, "gamma_initializer": {"config": {}, "class_name": "Ones"}}, "name": "batch_normalization_42", "class_name": "BatchNormalization"}, {"inbound_nodes": [[["conv2d_47", 0, 0, {}]]], "config": {"scale": false, "momentum": 0.99, "gamma_regularizer": null, "axis": 3, "gamma_constraint": null, "center": true, "beta_regularizer": null, "moving_mean_initializer": {"config": {}, "class_name": "Zeros"}, "epsilon": 0.001, "name": "batch_normalization_47", "moving_variance_initializer": {"config": {}, "class_name": "Ones"}, "beta_constraint": null, "beta_initializer": {"config": {}, "class_name": "Zeros"}, "trainable": false, "gamma_initializer": {"config": {}, "class_name": "Ones"}}, "name": "batch_normalization_47", "class_name": "BatchNormalization"}, {"inbound_nodes": [[["batch_normalization_42", 0, 0, {}]]], "config": {"activation": "relu", "name": "activation_42", "trainable": false}, "name": "activation_42", "class_name": "Activation"}, {"inbound_nodes": [[["batch_normalization_47", 0, 0, {}]]], "config": {"activation": "relu", "name": "activation_47", "trainable": false}, "name": "activation_47", "class_name": "Activation"}, {"inbound_nodes": [[["activation_42", 0, 0, {}]]], "config": {"bias_constraint": null, "bias_regularizer": null, "dilation_rate": [1, 1], "kernel_constraint": null, "kernel_initializer": {"config": {"scale": 1.0, "mode": "fan_avg", "distribution": "uniform", "seed": null}, "class_name": "VarianceScaling"}, "kernel_regularizer": null, "trainable": false, "activation": "linear", "activity_regularizer": null, "filters": 160, "padding": "same", "strides": [1, 1], "bias_initializer": {"config": {}, "class_name": "Zeros"}, "use_bias": false, "data_format": "channels_last", "kernel_size": [1, 7], "name": "conv2d_43"}, "name": "conv2d_43", "class_name": "Conv2D"}, {"inbound_nodes": [[["activation_47", 0, 0, {}]]], "config": {"bias_constraint": null, "bias_regularizer": null, "dilation_rate": [1, 1], "kernel_constraint": null, "kernel_initializer": {"config": {"scale": 1.0, "mode": "fan_avg", "distribution": "uniform", "seed": null}, "class_name": "VarianceScaling"}, "kernel_regularizer": null, "trainable": false, "activation": "linear", "activity_regularizer": null, "filters": 160, "padding": "same", "strides": [1, 1], "bias_initializer": {"config": {}, "class_name": "Zeros"}, "use_bias": false, "data_format": "channels_last", "kernel_size": [7, 1], "name": "conv2d_48"}, "name": "conv2d_48", "class_name": "Conv2D"}, {"inbound_nodes": [[["conv2d_43", 0, 0, {}]]], "config": {"scale": false, "momentum": 0.99, "gamma_regularizer": null, "axis": 3, "gamma_constraint": null, "center": true, "beta_regularizer": null, "moving_mean_initializer": {"config": {}, "class_name": "Zeros"}, "epsilon": 0.001, "name": "batch_normalization_43", "moving_variance_initializer": {"config": {}, "class_name": "Ones"}, "beta_constraint": null, "beta_initializer": {"config": {}, "class_name": "Zeros"}, "trainable": false, "gamma_initializer": {"config": {}, "class_name": "Ones"}}, "name": "batch_normalization_43", "class_name": "BatchNormalization"}, {"inbound_nodes": [[["conv2d_48", 0, 0, {}]]], "config": {"scale": false, "momentum": 0.99, "gamma_regularizer": null, "axis": 3, "gamma_constraint": null, "center": true, "beta_regularizer": null, "moving_mean_initializer": {"config": {}, "class_name": "Zeros"}, "epsilon": 0.001, "name": "batch_normalization_48", "moving_variance_initializer": {"config": {}, "class_name": "Ones"}, "beta_constraint": null, "beta_initializer": {"config": {}, "class_name": "Zeros"}, "trainable": false, "gamma_initializer": {"config": {}, "class_name": "Ones"}}, "name": "batch_normalization_48", "class_name": "BatchNormalization"}, {"inbound_nodes": [[["batch_normalization_43", 0, 0, {}]]], "config": {"activation": "relu", "name": "activation_43", "trainable": false}, "name": "activation_43", "class_name": "Activation"}, {"inbound_nodes": [[["batch_normalization_48", 0, 0, {}]]], "config": {"activation": "relu", "name": "activation_48", "trainable": false}, "name": "activation_48", "class_name": "Activation"}, {"inbound_nodes": [[["mixed4", 0, 0, {}]]], "config": {"name": "average_pooling2d_5", "data_format": "channels_last", "padding": "same", "strides": [1, 1], "trainable": false, "pool_size": [3, 3]}, "name": "average_pooling2d_5", "class_name": "AveragePooling2D"}, {"inbound_nodes": [[["mixed4", 0, 0, {}]]], "config": {"bias_constraint": null, "bias_regularizer": null, "dilation_rate": [1, 1], "kernel_constraint": null, "kernel_initializer": {"config": {"scale": 1.0, "mode": "fan_avg", "distribution": "uniform", "seed": null}, "class_name": "VarianceScaling"}, "kernel_regularizer": null, "trainable": false, "activation": "linear", "activity_regularizer": null, "filters": 192, "padding": "same", "strides": [1, 1], "bias_initializer": {"config": {}, "class_name": "Zeros"}, "use_bias": false, "data_format": "channels_last", "kernel_size": [1, 1], "name": "conv2d_41"}, "name": "conv2d_41", "class_name": "Conv2D"}, {"inbound_nodes": [[["activation_43", 0, 0, {}]]], "config": {"bias_constraint": null, "bias_regularizer": null, "dilation_rate": [1, 1], "kernel_constraint": null, "kernel_initializer": {"config": {"scale": 1.0, "mode": "fan_avg", "distribution": "uniform", "seed": null}, "class_name": "VarianceScaling"}, "kernel_regularizer": null, "trainable": false, "activation": "linear", "activity_regularizer": null, "filters": 192, "padding": "same", "strides": [1, 1], "bias_initializer": {"config": {}, "class_name": "Zeros"}, "use_bias": false, "data_format": "channels_last", "kernel_size": [7, 1], "name": "conv2d_44"}, "name": "conv2d_44", "class_name": "Conv2D"}, {"inbound_nodes": [[["activation_48", 0, 0, {}]]], "config": {"bias_constraint": null, "bias_regularizer": null, "dilation_rate": [1, 1], "kernel_constraint": null, "kernel_initializer": {"config": {"scale": 1.0, "mode": "fan_avg", "distribution": "uniform", "seed": null}, "class_name": "VarianceScaling"}, "kernel_regularizer": null, "trainable": false, "activation": "linear", "activity_regularizer": null, "filters": 192, "padding": "same", "strides": [1, 1], "bias_initializer": {"config": {}, "class_name": "Zeros"}, "use_bias": false, "data_format": "channels_last", "kernel_size": [1, 7], "name": "conv2d_49"}, "name": "conv2d_49", "class_name": "Conv2D"}, {"inbound_nodes": [[["average_pooling2d_5", 0, 0, {}]]], "config": {"bias_constraint": null, "bias_regularizer": null, "dilation_rate": [1, 1], "kernel_constraint": null, "kernel_initializer": {"config": {"scale": 1.0, "mode": "fan_avg", "distribution": "uniform", "seed": null}, "class_name": "VarianceScaling"}, "kernel_regularizer": null, "trainable": false, "activation": "linear", "activity_regularizer": null, "filters": 192, "padding": "same", "strides": [1, 1], "bias_initializer": {"config": {}, "class_name": "Zeros"}, "use_bias": false, "data_format": "channels_last", "kernel_size": [1, 1], "name": "conv2d_50"}, "name": "conv2d_50", "class_name": "Conv2D"}, {"inbound_nodes": [[["conv2d_41", 0, 0, {}]]], "config": {"scale": false, "momentum": 0.99, "gamma_regularizer": null, "axis": 3, "gamma_constraint": null, "center": true, "beta_regularizer": null, "moving_mean_initializer": {"config": {}, "class_name": "Zeros"}, "epsilon": 0.001, "name": "batch_normalization_41", "moving_variance_initializer": {"config": {}, "class_name": "Ones"}, "beta_constraint": null, "beta_initializer": {"config": {}, "class_name": "Zeros"}, "trainable": false, "gamma_initializer": {"config": {}, "class_name": "Ones"}}, "name": "batch_normalization_41", "class_name": "BatchNormalization"}, {"inbound_nodes": [[["conv2d_44", 0, 0, {}]]], "config": {"scale": false, "momentum": 0.99, "gamma_regularizer": null, "axis": 3, "gamma_constraint": null, "center": true, "beta_regularizer": null, "moving_mean_initializer": {"config": {}, "class_name": "Zeros"}, "epsilon": 0.001, "name": "batch_normalization_44", "moving_variance_initializer": {"config": {}, "class_name": "Ones"}, "beta_constraint": null, "beta_initializer": {"config": {}, "class_name": "Zeros"}, "trainable": false, "gamma_initializer": {"config": {}, "class_name": "Ones"}}, "name": "batch_normalization_44", "class_name": "BatchNormalization"}, {"inbound_nodes": [[["conv2d_49", 0, 0, {}]]], "config": {"scale": false, "momentum": 0.99, "gamma_regularizer": null, "axis": 3, "gamma_constraint": null, "center": true, "beta_regularizer": null, "moving_mean_initializer": {"config": {}, "class_name": "Zeros"}, "epsilon": 0.001, "name": "batch_normalization_49", "moving_variance_initializer": {"config": {}, "class_name": "Ones"}, "beta_constraint": null, "beta_initializer": {"config": {}, "class_name": "Zeros"}, "trainable": false, "gamma_initializer": {"config": {}, "class_name": "Ones"}}, "name": "batch_normalization_49", "class_name": "BatchNormalization"}, {"inbound_nodes": [[["conv2d_50", 0, 0, {}]]], "config": {"scale": false, "momentum": 0.99, "gamma_regularizer": null, "axis": 3, "gamma_constraint": null, "center": true, "beta_regularizer": null, "moving_mean_initializer": {"config": {}, "class_name": "Zeros"}, "epsilon": 0.001, "name": "batch_normalization_50", "moving_variance_initializer": {"config": {}, "class_name": "Ones"}, "beta_constraint": null, "beta_initializer": {"config": {}, "class_name": "Zeros"}, "trainable": false, "gamma_initializer": {"config": {}, "class_name": "Ones"}}, "name": "batch_normalization_50", "class_name": "BatchNormalization"}, {"inbound_nodes": [[["batch_normalization_41", 0, 0, {}]]], "config": {"activation": "relu", "name": "activation_41", "trainable": false}, "name": "activation_41", "class_name": "Activation"}, {"inbound_nodes": [[["batch_normalization_44", 0, 0, {}]]], "config": {"activation": "relu", "name": "activation_44", "trainable": false}, "name": "activation_44", "class_name": "Activation"}, {"inbound_nodes": [[["batch_normalization_49", 0, 0, {}]]], "config": {"activation": "relu", "name": "activation_49", "trainable": false}, "name": "activation_49", "class_name": "Activation"}, {"inbound_nodes": [[["batch_normalization_50", 0, 0, {}]]], "config": {"activation": "relu", "name": "activation_50", "trainable": false}, "name": "activation_50", "class_name": "Activation"}, {"inbound_nodes": [[["activation_41", 0, 0, {}], ["activation_44", 0, 0, {}], ["activation_49", 0, 0, {}], ["activation_50", 0, 0, {}]]], "config": {"name": "mixed5", "axis": 3, "trainable": false}, "name": "mixed5", "class_name": "Concatenate"}, {"inbound_nodes": [[["mixed5", 0, 0, {}]]], "config": {"bias_constraint": null, "bias_regularizer": null, "dilation_rate": [1, 1], "kernel_constraint": null, "kernel_initializer": {"config": {"scale": 1.0, "mode": "fan_avg", "distribution": "uniform", "seed": null}, "class_name": "VarianceScaling"}, "kernel_regularizer": null, "trainable": false, "activation": "linear", "activity_regularizer": null, "filters": 160, "padding": "same", "strides": [1, 1], "bias_initializer": {"config": {}, "class_name": "Zeros"}, "use_bias": false, "data_format": "channels_last", "kernel_size": [1, 1], "name": "conv2d_55"}, "name": "conv2d_55", "class_name": "Conv2D"}, {"inbound_nodes": [[["conv2d_55", 0, 0, {}]]], "config": {"scale": false, "momentum": 0.99, "gamma_regularizer": null, "axis": 3, "gamma_constraint": null, "center": true, "beta_regularizer": null, "moving_mean_initializer": {"config": {}, "class_name": "Zeros"}, "epsilon": 0.001, "name": "batch_normalization_55", "moving_variance_initializer": {"config": {}, "class_name": "Ones"}, "beta_constraint": null, "beta_initializer": {"config": {}, "class_name": "Zeros"}, "trainable": false, "gamma_initializer": {"config": {}, "class_name": "Ones"}}, "name": "batch_normalization_55", "class_name": "BatchNormalization"}, {"inbound_nodes": [[["batch_normalization_55", 0, 0, {}]]], "config": {"activation": "relu", "name": "activation_55", "trainable": false}, "name": "activation_55", "class_name": "Activation"}, {"inbound_nodes": [[["activation_55", 0, 0, {}]]], "config": {"bias_constraint": null, "bias_regularizer": null, "dilation_rate": [1, 1], "kernel_constraint": null, "kernel_initializer": {"config": {"scale": 1.0, "mode": "fan_avg", "distribution": "uniform", "seed": null}, "class_name": "VarianceScaling"}, "kernel_regularizer": null, "trainable": false, "activation": "linear", "activity_regularizer": null, "filters": 160, "padding": "same", "strides": [1, 1], "bias_initializer": {"config": {}, "class_name": "Zeros"}, "use_bias": false, "data_format": "channels_last", "kernel_size": [7, 1], "name": "conv2d_56"}, "name": "conv2d_56", "class_name": "Conv2D"}, {"inbound_nodes": [[["conv2d_56", 0, 0, {}]]], "config": {"scale": false, "momentum": 0.99, "gamma_regularizer": null, "axis": 3, "gamma_constraint": null, "center": true, "beta_regularizer": null, "moving_mean_initializer": {"config": {}, "class_name": "Zeros"}, "epsilon": 0.001, "name": "batch_normalization_56", "moving_variance_initializer": {"config": {}, "class_name": "Ones"}, "beta_constraint": null, "beta_initializer": {"config": {}, "class_name": "Zeros"}, "trainable": false, "gamma_initializer": {"config": {}, "class_name": "Ones"}}, "name": "batch_normalization_56", "class_name": "BatchNormalization"}, {"inbound_nodes": [[["batch_normalization_56", 0, 0, {}]]], "config": {"activation": "relu", "name": "activation_56", "trainable": false}, "name": "activation_56", "class_name": "Activation"}, {"inbound_nodes": [[["mixed5", 0, 0, {}]]], "config": {"bias_constraint": null, "bias_regularizer": null, "dilation_rate": [1, 1], "kernel_constraint": null, "kernel_initializer": {"config": {"scale": 1.0, "mode": "fan_avg", "distribution": "uniform", "seed": null}, "class_name": "VarianceScaling"}, "kernel_regularizer": null, "trainable": false, "activation": "linear", "activity_regularizer": null, "filters": 160, "padding": "same", "strides": [1, 1], "bias_initializer": {"config": {}, "class_name": "Zeros"}, "use_bias": false, "data_format": "channels_last", "kernel_size": [1, 1], "name": "conv2d_52"}, "name": "conv2d_52", "class_name": "Conv2D"}, {"inbound_nodes": [[["activation_56", 0, 0, {}]]], "config": {"bias_constraint": null, "bias_regularizer": null, "dilation_rate": [1, 1], "kernel_constraint": null, "kernel_initializer": {"config": {"scale": 1.0, "mode": "fan_avg", "distribution": "uniform", "seed": null}, "class_name": "VarianceScaling"}, "kernel_regularizer": null, "trainable": false, "activation": "linear", "activity_regularizer": null, "filters": 160, "padding": "same", "strides": [1, 1], "bias_initializer": {"config": {}, "class_name": "Zeros"}, "use_bias": false, "data_format": "channels_last", "kernel_size": [1, 7], "name": "conv2d_57"}, "name": "conv2d_57", "class_name": "Conv2D"}, {"inbound_nodes": [[["conv2d_52", 0, 0, {}]]], "config": {"scale": false, "momentum": 0.99, "gamma_regularizer": null, "axis": 3, "gamma_constraint": null, "center": true, "beta_regularizer": null, "moving_mean_initializer": {"config": {}, "class_name": "Zeros"}, "epsilon": 0.001, "name": "batch_normalization_52", "moving_variance_initializer": {"config": {}, "class_name": "Ones"}, "beta_constraint": null, "beta_initializer": {"config": {}, "class_name": "Zeros"}, "trainable": false, "gamma_initializer": {"config": {}, "class_name": "Ones"}}, "name": "batch_normalization_52", "class_name": "BatchNormalization"}, {"inbound_nodes": [[["conv2d_57", 0, 0, {}]]], "config": {"scale": false, "momentum": 0.99, "gamma_regularizer": null, "axis": 3, "gamma_constraint": null, "center": true, "beta_regularizer": null, "moving_mean_initializer": {"config": {}, "class_name": "Zeros"}, "epsilon": 0.001, "name": "batch_normalization_57", "moving_variance_initializer": {"config": {}, "class_name": "Ones"}, "beta_constraint": null, "beta_initializer": {"config": {}, "class_name": "Zeros"}, "trainable": false, "gamma_initializer": {"config": {}, "class_name": "Ones"}}, "name": "batch_normalization_57", "class_name": "BatchNormalization"}, {"inbound_nodes": [[["batch_normalization_52", 0, 0, {}]]], "config": {"activation": "relu", "name": "activation_52", "trainable": false}, "name": "activation_52", "class_name": "Activation"}, {"inbound_nodes": [[["batch_normalization_57", 0, 0, {}]]], "config": {"activation": "relu", "name": "activation_57", "trainable": false}, "name": "activation_57", "class_name": "Activation"}, {"inbound_nodes": [[["activation_52", 0, 0, {}]]], "config": {"bias_constraint": null, "bias_regularizer": null, "dilation_rate": [1, 1], "kernel_constraint": null, "kernel_initializer": {"config": {"scale": 1.0, "mode": "fan_avg", "distribution": "uniform", "seed": null}, "class_name": "VarianceScaling"}, "kernel_regularizer": null, "trainable": false, "activation": "linear", "activity_regularizer": null, "filters": 160, "padding": "same", "strides": [1, 1], "bias_initializer": {"config": {}, "class_name": "Zeros"}, "use_bias": false, "data_format": "channels_last", "kernel_size": [1, 7], "name": "conv2d_53"}, "name": "conv2d_53", "class_name": "Conv2D"}, {"inbound_nodes": [[["activation_57", 0, 0, {}]]], "config": {"bias_constraint": null, "bias_regularizer": null, "dilation_rate": [1, 1], "kernel_constraint": null, "kernel_initializer": {"config": {"scale": 1.0, "mode": "fan_avg", "distribution": "uniform", "seed": null}, "class_name": "VarianceScaling"}, "kernel_regularizer": null, "trainable": false, "activation": "linear", "activity_regularizer": null, "filters": 160, "padding": "same", "strides": [1, 1], "bias_initializer": {"config": {}, "class_name": "Zeros"}, "use_bias": false, "data_format": "channels_last", "kernel_size": [7, 1], "name": "conv2d_58"}, "name": "conv2d_58", "class_name": "Conv2D"}, {"inbound_nodes": [[["conv2d_53", 0, 0, {}]]], "config": {"scale": false, "momentum": 0.99, "gamma_regularizer": null, "axis": 3, "gamma_constraint": null, "center": true, "beta_regularizer": null, "moving_mean_initializer": {"config": {}, "class_name": "Zeros"}, "epsilon": 0.001, "name": "batch_normalization_53", "moving_variance_initializer": {"config": {}, "class_name": "Ones"}, "beta_constraint": null, "beta_initializer": {"config": {}, "class_name": "Zeros"}, "trainable": false, "gamma_initializer": {"config": {}, "class_name": "Ones"}}, "name": "batch_normalization_53", "class_name": "BatchNormalization"}, {"inbound_nodes": [[["conv2d_58", 0, 0, {}]]], "config": {"scale": false, "momentum": 0.99, "gamma_regularizer": null, "axis": 3, "gamma_constraint": null, "center": true, "beta_regularizer": null, "moving_mean_initializer": {"config": {}, "class_name": "Zeros"}, "epsilon": 0.001, "name": "batch_normalization_58", "moving_variance_initializer": {"config": {}, "class_name": "Ones"}, "beta_constraint": null, "beta_initializer": {"config": {}, "class_name": "Zeros"}, "trainable": false, "gamma_initializer": {"config": {}, "class_name": "Ones"}}, "name": "batch_normalization_58", "class_name": "BatchNormalization"}, {"inbound_nodes": [[["batch_normalization_53", 0, 0, {}]]], "config": {"activation": "relu", "name": "activation_53", "trainable": false}, "name": "activation_53", "class_name": "Activation"}, {"inbound_nodes": [[["batch_normalization_58", 0, 0, {}]]], "config": {"activation": "relu", "name": "activation_58", "trainable": false}, "name": "activation_58", "class_name": "Activation"}, {"inbound_nodes": [[["mixed5", 0, 0, {}]]], "config": {"name": "average_pooling2d_6", "data_format": "channels_last", "padding": "same", "strides": [1, 1], "trainable": false, "pool_size": [3, 3]}, "name": "average_pooling2d_6", "class_name": "AveragePooling2D"}, {"inbound_nodes": [[["mixed5", 0, 0, {}]]], "config": {"bias_constraint": null, "bias_regularizer": null, "dilation_rate": [1, 1], "kernel_constraint": null, "kernel_initializer": {"config": {"scale": 1.0, "mode": "fan_avg", "distribution": "uniform", "seed": null}, "class_name": "VarianceScaling"}, "kernel_regularizer": null, "trainable": false, "activation": "linear", "activity_regularizer": null, "filters": 192, "padding": "same", "strides": [1, 1], "bias_initializer": {"config": {}, "class_name": "Zeros"}, "use_bias": false, "data_format": "channels_last", "kernel_size": [1, 1], "name": "conv2d_51"}, "name": "conv2d_51", "class_name": "Conv2D"}, {"inbound_nodes": [[["activation_53", 0, 0, {}]]], "config": {"bias_constraint": null, "bias_regularizer": null, "dilation_rate": [1, 1], "kernel_constraint": null, "kernel_initializer": {"config": {"scale": 1.0, "mode": "fan_avg", "distribution": "uniform", "seed": null}, "class_name": "VarianceScaling"}, "kernel_regularizer": null, "trainable": false, "activation": "linear", "activity_regularizer": null, "filters": 192, "padding": "same", "strides": [1, 1], "bias_initializer": {"config": {}, "class_name": "Zeros"}, "use_bias": false, "data_format": "channels_last", "kernel_size": [7, 1], "name": "conv2d_54"}, "name": "conv2d_54", "class_name": "Conv2D"}, {"inbound_nodes": [[["activation_58", 0, 0, {}]]], "config": {"bias_constraint": null, "bias_regularizer": null, "dilation_rate": [1, 1], "kernel_constraint": null, "kernel_initializer": {"config": {"scale": 1.0, "mode": "fan_avg", "distribution": "uniform", "seed": null}, "class_name": "VarianceScaling"}, "kernel_regularizer": null, "trainable": false, "activation": "linear", "activity_regularizer": null, "filters": 192, "padding": "same", "strides": [1, 1], "bias_initializer": {"config": {}, "class_name": "Zeros"}, "use_bias": false, "data_format": "channels_last", "kernel_size": [1, 7], "name": "conv2d_59"}, "name": "conv2d_59", "class_name": "Conv2D"}, {"inbound_nodes": [[["average_pooling2d_6", 0, 0, {}]]], "config": {"bias_constraint": null, "bias_regularizer": null, "dilation_rate": [1, 1], "kernel_constraint": null, "kernel_initializer": {"config": {"scale": 1.0, "mode": "fan_avg", "distribution": "uniform", "seed": null}, "class_name": "VarianceScaling"}, "kernel_regularizer": null, "trainable": false, "activation": "linear", "activity_regularizer": null, "filters": 192, "padding": "same", "strides": [1, 1], "bias_initializer": {"config": {}, "class_name": "Zeros"}, "use_bias": false, "data_format": "channels_last", "kernel_size": [1, 1], "name": "conv2d_60"}, "name": "conv2d_60", "class_name": "Conv2D"}, {"inbound_nodes": [[["conv2d_51", 0, 0, {}]]], "config": {"scale": false, "momentum": 0.99, "gamma_regularizer": null, "axis": 3, "gamma_constraint": null, "center": true, "beta_regularizer": null, "moving_mean_initializer": {"config": {}, "class_name": "Zeros"}, "epsilon": 0.001, "name": "batch_normalization_51", "moving_variance_initializer": {"config": {}, "class_name": "Ones"}, "beta_constraint": null, "beta_initializer": {"config": {}, "class_name": "Zeros"}, "trainable": false, "gamma_initializer": {"config": {}, "class_name": "Ones"}}, "name": "batch_normalization_51", "class_name": "BatchNormalization"}, {"inbound_nodes": [[["conv2d_54", 0, 0, {}]]], "config": {"scale": false, "momentum": 0.99, "gamma_regularizer": null, "axis": 3, "gamma_constraint": null, "center": true, "beta_regularizer": null, "moving_mean_initializer": {"config": {}, "class_name": "Zeros"}, "epsilon": 0.001, "name": "batch_normalization_54", "moving_variance_initializer": {"config": {}, "class_name": "Ones"}, "beta_constraint": null, "beta_initializer": {"config": {}, "class_name": "Zeros"}, "trainable": false, "gamma_initializer": {"config": {}, "class_name": "Ones"}}, "name": "batch_normalization_54", "class_name": "BatchNormalization"}, {"inbound_nodes": [[["conv2d_59", 0, 0, {}]]], "config": {"scale": false, "momentum": 0.99, "gamma_regularizer": null, "axis": 3, "gamma_constraint": null, "center": true, "beta_regularizer": null, "moving_mean_initializer": {"config": {}, "class_name": "Zeros"}, "epsilon": 0.001, "name": "batch_normalization_59", "moving_variance_initializer": {"config": {}, "class_name": "Ones"}, "beta_constraint": null, "beta_initializer": {"config": {}, "class_name": "Zeros"}, "trainable": false, "gamma_initializer": {"config": {}, "class_name": "Ones"}}, "name": "batch_normalization_59", "class_name": "BatchNormalization"}, {"inbound_nodes": [[["conv2d_60", 0, 0, {}]]], "config": {"scale": false, "momentum": 0.99, "gamma_regularizer": null, "axis": 3, "gamma_constraint": null, "center": true, "beta_regularizer": null, "moving_mean_initializer": {"config": {}, "class_name": "Zeros"}, "epsilon": 0.001, "name": "batch_normalization_60", "moving_variance_initializer": {"config": {}, "class_name": "Ones"}, "beta_constraint": null, "beta_initializer": {"config": {}, "class_name": "Zeros"}, "trainable": false, "gamma_initializer": {"config": {}, "class_name": "Ones"}}, "name": "batch_normalization_60", "class_name": "BatchNormalization"}, {"inbound_nodes": [[["batch_normalization_51", 0, 0, {}]]], "config": {"activation": "relu", "name": "activation_51", "trainable": false}, "name": "activation_51", "class_name": "Activation"}, {"inbound_nodes": [[["batch_normalization_54", 0, 0, {}]]], "config": {"activation": "relu", "name": "activation_54", "trainable": false}, "name": "activation_54", "class_name": "Activation"}, {"inbound_nodes": [[["batch_normalization_59", 0, 0, {}]]], "config": {"activation": "relu", "name": "activation_59", "trainable": false}, "name": "activation_59", "class_name": "Activation"}, {"inbound_nodes": [[["batch_normalization_60", 0, 0, {}]]], "config": {"activation": "relu", "name": "activation_60", "trainable": false}, "name": "activation_60", "class_name": "Activation"}, {"inbound_nodes": [[["activation_51", 0, 0, {}], ["activation_54", 0, 0, {}], ["activation_59", 0, 0, {}], ["activation_60", 0, 0, {}]]], "config": {"name": "mixed6", "axis": 3, "trainable": false}, "name": "mixed6", "class_name": "Concatenate"}, {"inbound_nodes": [[["mixed6", 0, 0, {}]]], "config": {"bias_constraint": null, "bias_regularizer": null, "dilation_rate": [1, 1], "kernel_constraint": null, "kernel_initializer": {"config": {"scale": 1.0, "mode": "fan_avg", "distribution": "uniform", "seed": null}, "class_name": "VarianceScaling"}, "kernel_regularizer": null, "trainable": false, "activation": "linear", "activity_regularizer": null, "filters": 192, "padding": "same", "strides": [1, 1], "bias_initializer": {"config": {}, "class_name": "Zeros"}, "use_bias": false, "data_format": "channels_last", "kernel_size": [1, 1], "name": "conv2d_65"}, "name": "conv2d_65", "class_name": "Conv2D"}, {"inbound_nodes": [[["conv2d_65", 0, 0, {}]]], "config": {"scale": false, "momentum": 0.99, "gamma_regularizer": null, "axis": 3, "gamma_constraint": null, "center": true, "beta_regularizer": null, "moving_mean_initializer": {"config": {}, "class_name": "Zeros"}, "epsilon": 0.001, "name": "batch_normalization_65", "moving_variance_initializer": {"config": {}, "class_name": "Ones"}, "beta_constraint": null, "beta_initializer": {"config": {}, "class_name": "Zeros"}, "trainable": false, "gamma_initializer": {"config": {}, "class_name": "Ones"}}, "name": "batch_normalization_65", "class_name": "BatchNormalization"}, {"inbound_nodes": [[["batch_normalization_65", 0, 0, {}]]], "config": {"activation": "relu", "name": "activation_65", "trainable": false}, "name": "activation_65", "class_name": "Activation"}, {"inbound_nodes": [[["activation_65", 0, 0, {}]]], "config": {"bias_constraint": null, "bias_regularizer": null, "dilation_rate": [1, 1], "kernel_constraint": null, "kernel_initializer": {"config": {"scale": 1.0, "mode": "fan_avg", "distribution": "uniform", "seed": null}, "class_name": "VarianceScaling"}, "kernel_regularizer": null, "trainable": false, "activation": "linear", "activity_regularizer": null, "filters": 192, "padding": "same", "strides": [1, 1], "bias_initializer": {"config": {}, "class_name": "Zeros"}, "use_bias": false, "data_format": "channels_last", "kernel_size": [7, 1], "name": "conv2d_66"}, "name": "conv2d_66", "class_name": "Conv2D"}, {"inbound_nodes": [[["conv2d_66", 0, 0, {}]]], "config": {"scale": false, "momentum": 0.99, "gamma_regularizer": null, "axis": 3, "gamma_constraint": null, "center": true, "beta_regularizer": null, "moving_mean_initializer": {"config": {}, "class_name": "Zeros"}, "epsilon": 0.001, "name": "batch_normalization_66", "moving_variance_initializer": {"config": {}, "class_name": "Ones"}, "beta_constraint": null, "beta_initializer": {"config": {}, "class_name": "Zeros"}, "trainable": false, "gamma_initializer": {"config": {}, "class_name": "Ones"}}, "name": "batch_normalization_66", "class_name": "BatchNormalization"}, {"inbound_nodes": [[["batch_normalization_66", 0, 0, {}]]], "config": {"activation": "relu", "name": "activation_66", "trainable": false}, "name": "activation_66", "class_name": "Activation"}, {"inbound_nodes": [[["mixed6", 0, 0, {}]]], "config": {"bias_constraint": null, "bias_regularizer": null, "dilation_rate": [1, 1], "kernel_constraint": null, "kernel_initializer": {"config": {"scale": 1.0, "mode": "fan_avg", "distribution": "uniform", "seed": null}, "class_name": "VarianceScaling"}, "kernel_regularizer": null, "trainable": false, "activation": "linear", "activity_regularizer": null, "filters": 192, "padding": "same", "strides": [1, 1], "bias_initializer": {"config": {}, "class_name": "Zeros"}, "use_bias": false, "data_format": "channels_last", "kernel_size": [1, 1], "name": "conv2d_62"}, "name": "conv2d_62", "class_name": "Conv2D"}, {"inbound_nodes": [[["activation_66", 0, 0, {}]]], "config": {"bias_constraint": null, "bias_regularizer": null, "dilation_rate": [1, 1], "kernel_constraint": null, "kernel_initializer": {"config": {"scale": 1.0, "mode": "fan_avg", "distribution": "uniform", "seed": null}, "class_name": "VarianceScaling"}, "kernel_regularizer": null, "trainable": false, "activation": "linear", "activity_regularizer": null, "filters": 192, "padding": "same", "strides": [1, 1], "bias_initializer": {"config": {}, "class_name": "Zeros"}, "use_bias": false, "data_format": "channels_last", "kernel_size": [1, 7], "name": "conv2d_67"}, "name": "conv2d_67", "class_name": "Conv2D"}, {"inbound_nodes": [[["conv2d_62", 0, 0, {}]]], "config": {"scale": false, "momentum": 0.99, "gamma_regularizer": null, "axis": 3, "gamma_constraint": null, "center": true, "beta_regularizer": null, "moving_mean_initializer": {"config": {}, "class_name": "Zeros"}, "epsilon": 0.001, "name": "batch_normalization_62", "moving_variance_initializer": {"config": {}, "class_name": "Ones"}, "beta_constraint": null, "beta_initializer": {"config": {}, "class_name": "Zeros"}, "trainable": false, "gamma_initializer": {"config": {}, "class_name": "Ones"}}, "name": "batch_normalization_62", "class_name": "BatchNormalization"}, {"inbound_nodes": [[["conv2d_67", 0, 0, {}]]], "config": {"scale": false, "momentum": 0.99, "gamma_regularizer": null, "axis": 3, "gamma_constraint": null, "center": true, "beta_regularizer": null, "moving_mean_initializer": {"config": {}, "class_name": "Zeros"}, "epsilon": 0.001, "name": "batch_normalization_67", "moving_variance_initializer": {"config": {}, "class_name": "Ones"}, "beta_constraint": null, "beta_initializer": {"config": {}, "class_name": "Zeros"}, "trainable": false, "gamma_initializer": {"config": {}, "class_name": "Ones"}}, "name": "batch_normalization_67", "class_name": "BatchNormalization"}, {"inbound_nodes": [[["batch_normalization_62", 0, 0, {}]]], "config": {"activation": "relu", "name": "activation_62", "trainable": false}, "name": "activation_62", "class_name": "Activation"}, {"inbound_nodes": [[["batch_normalization_67", 0, 0, {}]]], "config": {"activation": "relu", "name": "activation_67", "trainable": false}, "name": "activation_67", "class_name": "Activation"}, {"inbound_nodes": [[["activation_62", 0, 0, {}]]], "config": {"bias_constraint": null, "bias_regularizer": null, "dilation_rate": [1, 1], "kernel_constraint": null, "kernel_initializer": {"config": {"scale": 1.0, "mode": "fan_avg", "distribution": "uniform", "seed": null}, "class_name": "VarianceScaling"}, "kernel_regularizer": null, "trainable": false, "activation": "linear", "activity_regularizer": null, "filters": 192, "padding": "same", "strides": [1, 1], "bias_initializer": {"config": {}, "class_name": "Zeros"}, "use_bias": false, "data_format": "channels_last", "kernel_size": [1, 7], "name": "conv2d_63"}, "name": "conv2d_63", "class_name": "Conv2D"}, {"inbound_nodes": [[["activation_67", 0, 0, {}]]], "config": {"bias_constraint": null, "bias_regularizer": null, "dilation_rate": [1, 1], "kernel_constraint": null, "kernel_initializer": {"config": {"scale": 1.0, "mode": "fan_avg", "distribution": "uniform", "seed": null}, "class_name": "VarianceScaling"}, "kernel_regularizer": null, "trainable": false, "activation": "linear", "activity_regularizer": null, "filters": 192, "padding": "same", "strides": [1, 1], "bias_initializer": {"config": {}, "class_name": "Zeros"}, "use_bias": false, "data_format": "channels_last", "kernel_size": [7, 1], "name": "conv2d_68"}, "name": "conv2d_68", "class_name": "Conv2D"}, {"inbound_nodes": [[["conv2d_63", 0, 0, {}]]], "config": {"scale": false, "momentum": 0.99, "gamma_regularizer": null, "axis": 3, "gamma_constraint": null, "center": true, "beta_regularizer": null, "moving_mean_initializer": {"config": {}, "class_name": "Zeros"}, "epsilon": 0.001, "name": "batch_normalization_63", "moving_variance_initializer": {"config": {}, "class_name": "Ones"}, "beta_constraint": null, "beta_initializer": {"config": {}, "class_name": "Zeros"}, "trainable": false, "gamma_initializer": {"config": {}, "class_name": "Ones"}}, "name": "batch_normalization_63", "class_name": "BatchNormalization"}, {"inbound_nodes": [[["conv2d_68", 0, 0, {}]]], "config": {"scale": false, "momentum": 0.99, "gamma_regularizer": null, "axis": 3, "gamma_constraint": null, "center": true, "beta_regularizer": null, "moving_mean_initializer": {"config": {}, "class_name": "Zeros"}, "epsilon": 0.001, "name": "batch_normalization_68", "moving_variance_initializer": {"config": {}, "class_name": "Ones"}, "beta_constraint": null, "beta_initializer": {"config": {}, "class_name": "Zeros"}, "trainable": false, "gamma_initializer": {"config": {}, "class_name": "Ones"}}, "name": "batch_normalization_68", "class_name": "BatchNormalization"}, {"inbound_nodes": [[["batch_normalization_63", 0, 0, {}]]], "config": {"activation": "relu", "name": "activation_63", "trainable": false}, "name": "activation_63", "class_name": "Activation"}, {"inbound_nodes": [[["batch_normalization_68", 0, 0, {}]]], "config": {"activation": "relu", "name": "activation_68", "trainable": false}, "name": "activation_68", "class_name": "Activation"}, {"inbound_nodes": [[["mixed6", 0, 0, {}]]], "config": {"name": "average_pooling2d_7", "data_format": "channels_last", "padding": "same", "strides": [1, 1], "trainable": false, "pool_size": [3, 3]}, "name": "average_pooling2d_7", "class_name": "AveragePooling2D"}, {"inbound_nodes": [[["mixed6", 0, 0, {}]]], "config": {"bias_constraint": null, "bias_regularizer": null, "dilation_rate": [1, 1], "kernel_constraint": null, "kernel_initializer": {"config": {"scale": 1.0, "mode": "fan_avg", "distribution": "uniform", "seed": null}, "class_name": "VarianceScaling"}, "kernel_regularizer": null, "trainable": false, "activation": "linear", "activity_regularizer": null, "filters": 192, "padding": "same", "strides": [1, 1], "bias_initializer": {"config": {}, "class_name": "Zeros"}, "use_bias": false, "data_format": "channels_last", "kernel_size": [1, 1], "name": "conv2d_61"}, "name": "conv2d_61", "class_name": "Conv2D"}, {"inbound_nodes": [[["activation_63", 0, 0, {}]]], "config": {"bias_constraint": null, "bias_regularizer": null, "dilation_rate": [1, 1], "kernel_constraint": null, "kernel_initializer": {"config": {"scale": 1.0, "mode": "fan_avg", "distribution": "uniform", "seed": null}, "class_name": "VarianceScaling"}, "kernel_regularizer": null, "trainable": false, "activation": "linear", "activity_regularizer": null, "filters": 192, "padding": "same", "strides": [1, 1], "bias_initializer": {"config": {}, "class_name": "Zeros"}, "use_bias": false, "data_format": "channels_last", "kernel_size": [7, 1], "name": "conv2d_64"}, "name": "conv2d_64", "class_name": "Conv2D"}, {"inbound_nodes": [[["activation_68", 0, 0, {}]]], "config": {"bias_constraint": null, "bias_regularizer": null, "dilation_rate": [1, 1], "kernel_constraint": null, "kernel_initializer": {"config": {"scale": 1.0, "mode": "fan_avg", "distribution": "uniform", "seed": null}, "class_name": "VarianceScaling"}, "kernel_regularizer": null, "trainable": false, "activation": "linear", "activity_regularizer": null, "filters": 192, "padding": "same", "strides": [1, 1], "bias_initializer": {"config": {}, "class_name": "Zeros"}, "use_bias": false, "data_format": "channels_last", "kernel_size": [1, 7], "name": "conv2d_69"}, "name": "conv2d_69", "class_name": "Conv2D"}, {"inbound_nodes": [[["average_pooling2d_7", 0, 0, {}]]], "config": {"bias_constraint": null, "bias_regularizer": null, "dilation_rate": [1, 1], "kernel_constraint": null, "kernel_initializer": {"config": {"scale": 1.0, "mode": "fan_avg", "distribution": "uniform", "seed": null}, "class_name": "VarianceScaling"}, "kernel_regularizer": null, "trainable": false, "activation": "linear", "activity_regularizer": null, "filters": 192, "padding": "same", "strides": [1, 1], "bias_initializer": {"config": {}, "class_name": "Zeros"}, "use_bias": false, "data_format": "channels_last", "kernel_size": [1, 1], "name": "conv2d_70"}, "name": "conv2d_70", "class_name": "Conv2D"}, {"inbound_nodes": [[["conv2d_61", 0, 0, {}]]], "config": {"scale": false, "momentum": 0.99, "gamma_regularizer": null, "axis": 3, "gamma_constraint": null, "center": true, "beta_regularizer": null, "moving_mean_initializer": {"config": {}, "class_name": "Zeros"}, "epsilon": 0.001, "name": "batch_normalization_61", "moving_variance_initializer": {"config": {}, "class_name": "Ones"}, "beta_constraint": null, "beta_initializer": {"config": {}, "class_name": "Zeros"}, "trainable": false, "gamma_initializer": {"config": {}, "class_name": "Ones"}}, "name": "batch_normalization_61", "class_name": "BatchNormalization"}, {"inbound_nodes": [[["conv2d_64", 0, 0, {}]]], "config": {"scale": false, "momentum": 0.99, "gamma_regularizer": null, "axis": 3, "gamma_constraint": null, "center": true, "beta_regularizer": null, "moving_mean_initializer": {"config": {}, "class_name": "Zeros"}, "epsilon": 0.001, "name": "batch_normalization_64", "moving_variance_initializer": {"config": {}, "class_name": "Ones"}, "beta_constraint": null, "beta_initializer": {"config": {}, "class_name": "Zeros"}, "trainable": false, "gamma_initializer": {"config": {}, "class_name": "Ones"}}, "name": "batch_normalization_64", "class_name": "BatchNormalization"}, {"inbound_nodes": [[["conv2d_69", 0, 0, {}]]], "config": {"scale": false, "momentum": 0.99, "gamma_regularizer": null, "axis": 3, "gamma_constraint": null, "center": true, "beta_regularizer": null, "moving_mean_initializer": {"config": {}, "class_name": "Zeros"}, "epsilon": 0.001, "name": "batch_normalization_69", "moving_variance_initializer": {"config": {}, "class_name": "Ones"}, "beta_constraint": null, "beta_initializer": {"config": {}, "class_name": "Zeros"}, "trainable": false, "gamma_initializer": {"config": {}, "class_name": "Ones"}}, "name": "batch_normalization_69", "class_name": "BatchNormalization"}, {"inbound_nodes": [[["conv2d_70", 0, 0, {}]]], "config": {"scale": false, "momentum": 0.99, "gamma_regularizer": null, "axis": 3, "gamma_constraint": null, "center": true, "beta_regularizer": null, "moving_mean_initializer": {"config": {}, "class_name": "Zeros"}, "epsilon": 0.001, "name": "batch_normalization_70", "moving_variance_initializer": {"config": {}, "class_name": "Ones"}, "beta_constraint": null, "beta_initializer": {"config": {}, "class_name": "Zeros"}, "trainable": false, "gamma_initializer": {"config": {}, "class_name": "Ones"}}, "name": "batch_normalization_70", "class_name": "BatchNormalization"}, {"inbound_nodes": [[["batch_normalization_61", 0, 0, {}]]], "config": {"activation": "relu", "name": "activation_61", "trainable": false}, "name": "activation_61", "class_name": "Activation"}, {"inbound_nodes": [[["batch_normalization_64", 0, 0, {}]]], "config": {"activation": "relu", "name": "activation_64", "trainable": false}, "name": "activation_64", "class_name": "Activation"}, {"inbound_nodes": [[["batch_normalization_69", 0, 0, {}]]], "config": {"activation": "relu", "name": "activation_69", "trainable": false}, "name": "activation_69", "class_name": "Activation"}, {"inbound_nodes": [[["batch_normalization_70", 0, 0, {}]]], "config": {"activation": "relu", "name": "activation_70", "trainable": false}, "name": "activation_70", "class_name": "Activation"}, {"inbound_nodes": [[["activation_61", 0, 0, {}], ["activation_64", 0, 0, {}], ["activation_69", 0, 0, {}], ["activation_70", 0, 0, {}]]], "config": {"name": "mixed7", "axis": 3, "trainable": false}, "name": "mixed7", "class_name": "Concatenate"}, {"inbound_nodes": [[["mixed7", 0, 0, {}]]], "config": {"bias_constraint": null, "bias_regularizer": null, "dilation_rate": [1, 1], "kernel_constraint": null, "kernel_initializer": {"config": {"scale": 1.0, "mode": "fan_avg", "distribution": "uniform", "seed": null}, "class_name": "VarianceScaling"}, "kernel_regularizer": null, "trainable": false, "activation": "linear", "activity_regularizer": null, "filters": 192, "padding": "same", "strides": [1, 1], "bias_initializer": {"config": {}, "class_name": "Zeros"}, "use_bias": false, "data_format": "channels_last", "kernel_size": [1, 1], "name": "conv2d_73"}, "name": "conv2d_73", "class_name": "Conv2D"}, {"inbound_nodes": [[["conv2d_73", 0, 0, {}]]], "config": {"scale": false, "momentum": 0.99, "gamma_regularizer": null, "axis": 3, "gamma_constraint": null, "center": true, "beta_regularizer": null, "moving_mean_initializer": {"config": {}, "class_name": "Zeros"}, "epsilon": 0.001, "name": "batch_normalization_73", "moving_variance_initializer": {"config": {}, "class_name": "Ones"}, "beta_constraint": null, "beta_initializer": {"config": {}, "class_name": "Zeros"}, "trainable": false, "gamma_initializer": {"config": {}, "class_name": "Ones"}}, "name": "batch_normalization_73", "class_name": "BatchNormalization"}, {"inbound_nodes": [[["batch_normalization_73", 0, 0, {}]]], "config": {"activation": "relu", "name": "activation_73", "trainable": false}, "name": "activation_73", "class_name": "Activation"}, {"inbound_nodes": [[["activation_73", 0, 0, {}]]], "config": {"bias_constraint": null, "bias_regularizer": null, "dilation_rate": [1, 1], "kernel_constraint": null, "kernel_initializer": {"config": {"scale": 1.0, "mode": "fan_avg", "distribution": "uniform", "seed": null}, "class_name": "VarianceScaling"}, "kernel_regularizer": null, "trainable": false, "activation": "linear", "activity_regularizer": null, "filters": 192, "padding": "same", "strides": [1, 1], "bias_initializer": {"config": {}, "class_name": "Zeros"}, "use_bias": false, "data_format": "channels_last", "kernel_size": [1, 7], "name": "conv2d_74"}, "name": "conv2d_74", "class_name": "Conv2D"}, {"inbound_nodes": [[["conv2d_74", 0, 0, {}]]], "config": {"scale": false, "momentum": 0.99, "gamma_regularizer": null, "axis": 3, "gamma_constraint": null, "center": true, "beta_regularizer": null, "moving_mean_initializer": {"config": {}, "class_name": "Zeros"}, "epsilon": 0.001, "name": "batch_normalization_74", "moving_variance_initializer": {"config": {}, "class_name": "Ones"}, "beta_constraint": null, "beta_initializer": {"config": {}, "class_name": "Zeros"}, "trainable": false, "gamma_initializer": {"config": {}, "class_name": "Ones"}}, "name": "batch_normalization_74", "class_name": "BatchNormalization"}, {"inbound_nodes": [[["batch_normalization_74", 0, 0, {}]]], "config": {"activation": "relu", "name": "activation_74", "trainable": false}, "name": "activation_74", "class_name": "Activation"}, {"inbound_nodes": [[["mixed7", 0, 0, {}]]], "config": {"bias_constraint": null, "bias_regularizer": null, "dilation_rate": [1, 1], "kernel_constraint": null, "kernel_initializer": {"config": {"scale": 1.0, "mode": "fan_avg", "distribution": "uniform", "seed": null}, "class_name": "VarianceScaling"}, "kernel_regularizer": null, "trainable": false, "activation": "linear", "activity_regularizer": null, "filters": 192, "padding": "same", "strides": [1, 1], "bias_initializer": {"config": {}, "class_name": "Zeros"}, "use_bias": false, "data_format": "channels_last", "kernel_size": [1, 1], "name": "conv2d_71"}, "name": "conv2d_71", "class_name": "Conv2D"}, {"inbound_nodes": [[["activation_74", 0, 0, {}]]], "config": {"bias_constraint": null, "bias_regularizer": null, "dilation_rate": [1, 1], "kernel_constraint": null, "kernel_initializer": {"config": {"scale": 1.0, "mode": "fan_avg", "distribution": "uniform", "seed": null}, "class_name": "VarianceScaling"}, "kernel_regularizer": null, "trainable": false, "activation": "linear", "activity_regularizer": null, "filters": 192, "padding": "same", "strides": [1, 1], "bias_initializer": {"config": {}, "class_name": "Zeros"}, "use_bias": false, "data_format": "channels_last", "kernel_size": [7, 1], "name": "conv2d_75"}, "name": "conv2d_75", "class_name": "Conv2D"}, {"inbound_nodes": [[["conv2d_71", 0, 0, {}]]], "config": {"scale": false, "momentum": 0.99, "gamma_regularizer": null, "axis": 3, "gamma_constraint": null, "center": true, "beta_regularizer": null, "moving_mean_initializer": {"config": {}, "class_name": "Zeros"}, "epsilon": 0.001, "name": "batch_normalization_71", "moving_variance_initializer": {"config": {}, "class_name": "Ones"}, "beta_constraint": null, "beta_initializer": {"config": {}, "class_name": "Zeros"}, "trainable": false, "gamma_initializer": {"config": {}, "class_name": "Ones"}}, "name": "batch_normalization_71", "class_name": "BatchNormalization"}, {"inbound_nodes": [[["conv2d_75", 0, 0, {}]]], "config": {"scale": false, "momentum": 0.99, "gamma_regularizer": null, "axis": 3, "gamma_constraint": null, "center": true, "beta_regularizer": null, "moving_mean_initializer": {"config": {}, "class_name": "Zeros"}, "epsilon": 0.001, "name": "batch_normalization_75", "moving_variance_initializer": {"config": {}, "class_name": "Ones"}, "beta_constraint": null, "beta_initializer": {"config": {}, "class_name": "Zeros"}, "trainable": false, "gamma_initializer": {"config": {}, "class_name": "Ones"}}, "name": "batch_normalization_75", "class_name": "BatchNormalization"}, {"inbound_nodes": [[["batch_normalization_71", 0, 0, {}]]], "config": {"activation": "relu", "name": "activation_71", "trainable": false}, "name": "activation_71", "class_name": "Activation"}, {"inbound_nodes": [[["batch_normalization_75", 0, 0, {}]]], "config": {"activation": "relu", "name": "activation_75", "trainable": false}, "name": "activation_75", "class_name": "Activation"}, {"inbound_nodes": [[["activation_71", 0, 0, {}]]], "config": {"bias_constraint": null, "bias_regularizer": null, "dilation_rate": [1, 1], "kernel_constraint": null, "kernel_initializer": {"config": {"scale": 1.0, "mode": "fan_avg", "distribution": "uniform", "seed": null}, "class_name": "VarianceScaling"}, "kernel_regularizer": null, "trainable": false, "activation": "linear", "activity_regularizer": null, "filters": 320, "padding": "valid", "strides": [2, 2], "bias_initializer": {"config": {}, "class_name": "Zeros"}, "use_bias": false, "data_format": "channels_last", "kernel_size": [3, 3], "name": "conv2d_72"}, "name": "conv2d_72", "class_name": "Conv2D"}, {"inbound_nodes": [[["activation_75", 0, 0, {}]]], "config": {"bias_constraint": null, "bias_regularizer": null, "dilation_rate": [1, 1], "kernel_constraint": null, "kernel_initializer": {"config": {"scale": 1.0, "mode": "fan_avg", "distribution": "uniform", "seed": null}, "class_name": "VarianceScaling"}, "kernel_regularizer": null, "trainable": false, "activation": "linear", "activity_regularizer": null, "filters": 192, "padding": "valid", "strides": [2, 2], "bias_initializer": {"config": {}, "class_name": "Zeros"}, "use_bias": false, "data_format": "channels_last", "kernel_size": [3, 3], "name": "conv2d_76"}, "name": "conv2d_76", "class_name": "Conv2D"}, {"inbound_nodes": [[["conv2d_72", 0, 0, {}]]], "config": {"scale": false, "momentum": 0.99, "gamma_regularizer": null, "axis": 3, "gamma_constraint": null, "center": true, "beta_regularizer": null, "moving_mean_initializer": {"config": {}, "class_name": "Zeros"}, "epsilon": 0.001, "name": "batch_normalization_72", "moving_variance_initializer": {"config": {}, "class_name": "Ones"}, "beta_constraint": null, "beta_initializer": {"config": {}, "class_name": "Zeros"}, "trainable": false, "gamma_initializer": {"config": {}, "class_name": "Ones"}}, "name": "batch_normalization_72", "class_name": "BatchNormalization"}, {"inbound_nodes": [[["conv2d_76", 0, 0, {}]]], "config": {"scale": false, "momentum": 0.99, "gamma_regularizer": null, "axis": 3, "gamma_constraint": null, "center": true, "beta_regularizer": null, "moving_mean_initializer": {"config": {}, "class_name": "Zeros"}, "epsilon": 0.001, "name": "batch_normalization_76", "moving_variance_initializer": {"config": {}, "class_name": "Ones"}, "beta_constraint": null, "beta_initializer": {"config": {}, "class_name": "Zeros"}, "trainable": false, "gamma_initializer": {"config": {}, "class_name": "Ones"}}, "name": "batch_normalization_76", "class_name": "BatchNormalization"}, {"inbound_nodes": [[["batch_normalization_72", 0, 0, {}]]], "config": {"activation": "relu", "name": "activation_72", "trainable": false}, "name": "activation_72", "class_name": "Activation"}, {"inbound_nodes": [[["batch_normalization_76", 0, 0, {}]]], "config": {"activation": "relu", "name": "activation_76", "trainable": false}, "name": "activation_76", "class_name": "Activation"}, {"inbound_nodes": [[["mixed7", 0, 0, {}]]], "config": {"name": "max_pooling2d_4", "data_format": "channels_last", "padding": "valid", "strides": [2, 2], "trainable": false, "pool_size": [3, 3]}, "name": "max_pooling2d_4", "class_name": "MaxPooling2D"}, {"inbound_nodes": [[["activation_72", 0, 0, {}], ["activation_76", 0, 0, {}], ["max_pooling2d_4", 0, 0, {}]]], "config": {"name": "mixed8", "axis": 3, "trainable": false}, "name": "mixed8", "class_name": "Concatenate"}, {"inbound_nodes": [[["mixed8", 0, 0, {}]]], "config": {"bias_constraint": null, "bias_regularizer": null, "dilation_rate": [1, 1], "kernel_constraint": null, "kernel_initializer": {"config": {"scale": 1.0, "mode": "fan_avg", "distribution": "uniform", "seed": null}, "class_name": "VarianceScaling"}, "kernel_regularizer": null, "trainable": false, "activation": "linear", "activity_regularizer": null, "filters": 448, "padding": "same", "strides": [1, 1], "bias_initializer": {"config": {}, "class_name": "Zeros"}, "use_bias": false, "data_format": "channels_last", "kernel_size": [1, 1], "name": "conv2d_81"}, "name": "conv2d_81", "class_name": "Conv2D"}, {"inbound_nodes": [[["conv2d_81", 0, 0, {}]]], "config": {"scale": false, "momentum": 0.99, "gamma_regularizer": null, "axis": 3, "gamma_constraint": null, "center": true, "beta_regularizer": null, "moving_mean_initializer": {"config": {}, "class_name": "Zeros"}, "epsilon": 0.001, "name": "batch_normalization_81", "moving_variance_initializer": {"config": {}, "class_name": "Ones"}, "beta_constraint": null, "beta_initializer": {"config": {}, "class_name": "Zeros"}, "trainable": false, "gamma_initializer": {"config": {}, "class_name": "Ones"}}, "name": "batch_normalization_81", "class_name": "BatchNormalization"}, {"inbound_nodes": [[["batch_normalization_81", 0, 0, {}]]], "config": {"activation": "relu", "name": "activation_81", "trainable": false}, "name": "activation_81", "class_name": "Activation"}, {"inbound_nodes": [[["mixed8", 0, 0, {}]]], "config": {"bias_constraint": null, "bias_regularizer": null, "dilation_rate": [1, 1], "kernel_constraint": null, "kernel_initializer": {"config": {"scale": 1.0, "mode": "fan_avg", "distribution": "uniform", "seed": null}, "class_name": "VarianceScaling"}, "kernel_regularizer": null, "trainable": false, "activation": "linear", "activity_regularizer": null, "filters": 384, "padding": "same", "strides": [1, 1], "bias_initializer": {"config": {}, "class_name": "Zeros"}, "use_bias": false, "data_format": "channels_last", "kernel_size": [1, 1], "name": "conv2d_78"}, "name": "conv2d_78", "class_name": "Conv2D"}, {"inbound_nodes": [[["activation_81", 0, 0, {}]]], "config": {"bias_constraint": null, "bias_regularizer": null, "dilation_rate": [1, 1], "kernel_constraint": null, "kernel_initializer": {"config": {"scale": 1.0, "mode": "fan_avg", "distribution": "uniform", "seed": null}, "class_name": "VarianceScaling"}, "kernel_regularizer": null, "trainable": false, "activation": "linear", "activity_regularizer": null, "filters": 384, "padding": "same", "strides": [1, 1], "bias_initializer": {"config": {}, "class_name": "Zeros"}, "use_bias": false, "data_format": "channels_last", "kernel_size": [3, 3], "name": "conv2d_82"}, "name": "conv2d_82", "class_name": "Conv2D"}, {"inbound_nodes": [[["conv2d_78", 0, 0, {}]]], "config": {"scale": false, "momentum": 0.99, "gamma_regularizer": null, "axis": 3, "gamma_constraint": null, "center": true, "beta_regularizer": null, "moving_mean_initializer": {"config": {}, "class_name": "Zeros"}, "epsilon": 0.001, "name": "batch_normalization_78", "moving_variance_initializer": {"config": {}, "class_name": "Ones"}, "beta_constraint": null, "beta_initializer": {"config": {}, "class_name": "Zeros"}, "trainable": false, "gamma_initializer": {"config": {}, "class_name": "Ones"}}, "name": "batch_normalization_78", "class_name": "BatchNormalization"}, {"inbound_nodes": [[["conv2d_82", 0, 0, {}]]], "config": {"scale": false, "momentum": 0.99, "gamma_regularizer": null, "axis": 3, "gamma_constraint": null, "center": true, "beta_regularizer": null, "moving_mean_initializer": {"config": {}, "class_name": "Zeros"}, "epsilon": 0.001, "name": "batch_normalization_82", "moving_variance_initializer": {"config": {}, "class_name": "Ones"}, "beta_constraint": null, "beta_initializer": {"config": {}, "class_name": "Zeros"}, "trainable": false, "gamma_initializer": {"config": {}, "class_name": "Ones"}}, "name": "batch_normalization_82", "class_name": "BatchNormalization"}, {"inbound_nodes": [[["batch_normalization_78", 0, 0, {}]]], "config": {"activation": "relu", "name": "activation_78", "trainable": false}, "name": "activation_78", "class_name": "Activation"}, {"inbound_nodes": [[["batch_normalization_82", 0, 0, {}]]], "config": {"activation": "relu", "name": "activation_82", "trainable": false}, "name": "activation_82", "class_name": "Activation"}, {"inbound_nodes": [[["activation_78", 0, 0, {}]]], "config": {"bias_constraint": null, "bias_regularizer": null, "dilation_rate": [1, 1], "kernel_constraint": null, "kernel_initializer": {"config": {"scale": 1.0, "mode": "fan_avg", "distribution": "uniform", "seed": null}, "class_name": "VarianceScaling"}, "kernel_regularizer": null, "trainable": false, "activation": "linear", "activity_regularizer": null, "filters": 384, "padding": "same", "strides": [1, 1], "bias_initializer": {"config": {}, "class_name": "Zeros"}, "use_bias": false, "data_format": "channels_last", "kernel_size": [1, 3], "name": "conv2d_79"}, "name": "conv2d_79", "class_name": "Conv2D"}, {"inbound_nodes": [[["activation_78", 0, 0, {}]]], "config": {"bias_constraint": null, "bias_regularizer": null, "dilation_rate": [1, 1], "kernel_constraint": null, "kernel_initializer": {"config": {"scale": 1.0, "mode": "fan_avg", "distribution": "uniform", "seed": null}, "class_name": "VarianceScaling"}, "kernel_regularizer": null, "trainable": false, "activation": "linear", "activity_regularizer": null, "filters": 384, "padding": "same", "strides": [1, 1], "bias_initializer": {"config": {}, "class_name": "Zeros"}, "use_bias": false, "data_format": "channels_last", "kernel_size": [3, 1], "name": "conv2d_80"}, "name": "conv2d_80", "class_name": "Conv2D"}, {"inbound_nodes": [[["activation_82", 0, 0, {}]]], "config": {"bias_constraint": null, "bias_regularizer": null, "dilation_rate": [1, 1], "kernel_constraint": null, "kernel_initializer": {"config": {"scale": 1.0, "mode": "fan_avg", "distribution": "uniform", "seed": null}, "class_name": "VarianceScaling"}, "kernel_regularizer": null, "trainable": false, "activation": "linear", "activity_regularizer": null, "filters": 384, "padding": "same", "strides": [1, 1], "bias_initializer": {"config": {}, "class_name": "Zeros"}, "use_bias": false, "data_format": "channels_last", "kernel_size": [1, 3], "name": "conv2d_83"}, "name": "conv2d_83", "class_name": "Conv2D"}, {"inbound_nodes": [[["activation_82", 0, 0, {}]]], "config": {"bias_constraint": null, "bias_regularizer": null, "dilation_rate": [1, 1], "kernel_constraint": null, "kernel_initializer": {"config": {"scale": 1.0, "mode": "fan_avg", "distribution": "uniform", "seed": null}, "class_name": "VarianceScaling"}, "kernel_regularizer": null, "trainable": false, "activation": "linear", "activity_regularizer": null, "filters": 384, "padding": "same", "strides": [1, 1], "bias_initializer": {"config": {}, "class_name": "Zeros"}, "use_bias": false, "data_format": "channels_last", "kernel_size": [3, 1], "name": "conv2d_84"}, "name": "conv2d_84", "class_name": "Conv2D"}, {"inbound_nodes": [[["mixed8", 0, 0, {}]]], "config": {"name": "average_pooling2d_8", "data_format": "channels_last", "padding": "same", "strides": [1, 1], "trainable": false, "pool_size": [3, 3]}, "name": "average_pooling2d_8", "class_name": "AveragePooling2D"}, {"inbound_nodes": [[["mixed8", 0, 0, {}]]], "config": {"bias_constraint": null, "bias_regularizer": null, "dilation_rate": [1, 1], "kernel_constraint": null, "kernel_initializer": {"config": {"scale": 1.0, "mode": "fan_avg", "distribution": "uniform", "seed": null}, "class_name": "VarianceScaling"}, "kernel_regularizer": null, "trainable": false, "activation": "linear", "activity_regularizer": null, "filters": 320, "padding": "same", "strides": [1, 1], "bias_initializer": {"config": {}, "class_name": "Zeros"}, "use_bias": false, "data_format": "channels_last", "kernel_size": [1, 1], "name": "conv2d_77"}, "name": "conv2d_77", "class_name": "Conv2D"}, {"inbound_nodes": [[["conv2d_79", 0, 0, {}]]], "config": {"scale": false, "momentum": 0.99, "gamma_regularizer": null, "axis": 3, "gamma_constraint": null, "center": true, "beta_regularizer": null, "moving_mean_initializer": {"config": {}, "class_name": "Zeros"}, "epsilon": 0.001, "name": "batch_normalization_79", "moving_variance_initializer": {"config": {}, "class_name": "Ones"}, "beta_constraint": null, "beta_initializer": {"config": {}, "class_name": "Zeros"}, "trainable": false, "gamma_initializer": {"config": {}, "class_name": "Ones"}}, "name": "batch_normalization_79", "class_name": "BatchNormalization"}, {"inbound_nodes": [[["conv2d_80", 0, 0, {}]]], "config": {"scale": false, "momentum": 0.99, "gamma_regularizer": null, "axis": 3, "gamma_constraint": null, "center": true, "beta_regularizer": null, "moving_mean_initializer": {"config": {}, "class_name": "Zeros"}, "epsilon": 0.001, "name": "batch_normalization_80", "moving_variance_initializer": {"config": {}, "class_name": "Ones"}, "beta_constraint": null, "beta_initializer": {"config": {}, "class_name": "Zeros"}, "trainable": false, "gamma_initializer": {"config": {}, "class_name": "Ones"}}, "name": "batch_normalization_80", "class_name": "BatchNormalization"}, {"inbound_nodes": [[["conv2d_83", 0, 0, {}]]], "config": {"scale": false, "momentum": 0.99, "gamma_regularizer": null, "axis": 3, "gamma_constraint": null, "center": true, "beta_regularizer": null, "moving_mean_initializer": {"config": {}, "class_name": "Zeros"}, "epsilon": 0.001, "name": "batch_normalization_83", "moving_variance_initializer": {"config": {}, "class_name": "Ones"}, "beta_constraint": null, "beta_initializer": {"config": {}, "class_name": "Zeros"}, "trainable": false, "gamma_initializer": {"config": {}, "class_name": "Ones"}}, "name": "batch_normalization_83", "class_name": "BatchNormalization"}, {"inbound_nodes": [[["conv2d_84", 0, 0, {}]]], "config": {"scale": false, "momentum": 0.99, "gamma_regularizer": null, "axis": 3, "gamma_constraint": null, "center": true, "beta_regularizer": null, "moving_mean_initializer": {"config": {}, "class_name": "Zeros"}, "epsilon": 0.001, "name": "batch_normalization_84", "moving_variance_initializer": {"config": {}, "class_name": "Ones"}, "beta_constraint": null, "beta_initializer": {"config": {}, "class_name": "Zeros"}, "trainable": false, "gamma_initializer": {"config": {}, "class_name": "Ones"}}, "name": "batch_normalization_84", "class_name": "BatchNormalization"}, {"inbound_nodes": [[["average_pooling2d_8", 0, 0, {}]]], "config": {"bias_constraint": null, "bias_regularizer": null, "dilation_rate": [1, 1], "kernel_constraint": null, "kernel_initializer": {"config": {"scale": 1.0, "mode": "fan_avg", "distribution": "uniform", "seed": null}, "class_name": "VarianceScaling"}, "kernel_regularizer": null, "trainable": false, "activation": "linear", "activity_regularizer": null, "filters": 192, "padding": "same", "strides": [1, 1], "bias_initializer": {"config": {}, "class_name": "Zeros"}, "use_bias": false, "data_format": "channels_last", "kernel_size": [1, 1], "name": "conv2d_85"}, "name": "conv2d_85", "class_name": "Conv2D"}, {"inbound_nodes": [[["conv2d_77", 0, 0, {}]]], "config": {"scale": false, "momentum": 0.99, "gamma_regularizer": null, "axis": 3, "gamma_constraint": null, "center": true, "beta_regularizer": null, "moving_mean_initializer": {"config": {}, "class_name": "Zeros"}, "epsilon": 0.001, "name": "batch_normalization_77", "moving_variance_initializer": {"config": {}, "class_name": "Ones"}, "beta_constraint": null, "beta_initializer": {"config": {}, "class_name": "Zeros"}, "trainable": false, "gamma_initializer": {"config": {}, "class_name": "Ones"}}, "name": "batch_normalization_77", "class_name": "BatchNormalization"}, {"inbound_nodes": [[["batch_normalization_79", 0, 0, {}]]], "config": {"activation": "relu", "name": "activation_79", "trainable": false}, "name": "activation_79", "class_name": "Activation"}, {"inbound_nodes": [[["batch_normalization_80", 0, 0, {}]]], "config": {"activation": "relu", "name": "activation_80", "trainable": false}, "name": "activation_80", "class_name": "Activation"}, {"inbound_nodes": [[["batch_normalization_83", 0, 0, {}]]], "config": {"activation": "relu", "name": "activation_83", "trainable": false}, "name": "activation_83", "class_name": "Activation"}, {"inbound_nodes": [[["batch_normalization_84", 0, 0, {}]]], "config": {"activation": "relu", "name": "activation_84", "trainable": false}, "name": "activation_84", "class_name": "Activation"}, {"inbound_nodes": [[["conv2d_85", 0, 0, {}]]], "config": {"scale": false, "momentum": 0.99, "gamma_regularizer": null, "axis": 3, "gamma_constraint": null, "center": true, "beta_regularizer": null, "moving_mean_initializer": {"config": {}, "class_name": "Zeros"}, "epsilon": 0.001, "name": "batch_normalization_85", "moving_variance_initializer": {"config": {}, "class_name": "Ones"}, "beta_constraint": null, "beta_initializer": {"config": {}, "class_name": "Zeros"}, "trainable": false, "gamma_initializer": {"config": {}, "class_name": "Ones"}}, "name": "batch_normalization_85", "class_name": "BatchNormalization"}, {"inbound_nodes": [[["batch_normalization_77", 0, 0, {}]]], "config": {"activation": "relu", "name": "activation_77", "trainable": false}, "name": "activation_77", "class_name": "Activation"}, {"inbound_nodes": [[["activation_79", 0, 0, {}], ["activation_80", 0, 0, {}]]], "config": {"name": "mixed9_0", "axis": 3, "trainable": false}, "name": "mixed9_0", "class_name": "Concatenate"}, {"inbound_nodes": [[["activation_83", 0, 0, {}], ["activation_84", 0, 0, {}]]], "config": {"name": "concatenate_1", "axis": 3, "trainable": false}, "name": "concatenate_1", "class_name": "Concatenate"}, {"inbound_nodes": [[["batch_normalization_85", 0, 0, {}]]], "config": {"activation": "relu", "name": "activation_85", "trainable": false}, "name": "activation_85", "class_name": "Activation"}, {"inbound_nodes": [[["activation_77", 0, 0, {}], ["mixed9_0", 0, 0, {}], ["concatenate_1", 0, 0, {}], ["activation_85", 0, 0, {}]]], "config": {"name": "mixed9", "axis": 3, "trainable": false}, "name": "mixed9", "class_name": "Concatenate"}, {"inbound_nodes": [[["mixed9", 0, 0, {}]]], "config": {"bias_constraint": null, "bias_regularizer": null, "dilation_rate": [1, 1], "kernel_constraint": null, "kernel_initializer": {"config": {"scale": 1.0, "mode": "fan_avg", "distribution": "uniform", "seed": null}, "class_name": "VarianceScaling"}, "kernel_regularizer": null, "trainable": false, "activation": "linear", "activity_regularizer": null, "filters": 320, "padding": "same", "strides": [1, 1], "bias_initializer": {"config": {}, "class_name": "Zeros"}, "use_bias": false, "data_format": "channels_last", "kernel_size": [1, 1], "name": "conv2d_86"}, "name": "conv2d_86", "class_name": "Conv2D"}, {"inbound_nodes": [[["conv2d_86", 0, 0, {}]]], "config": {"scale": false, "momentum": 0.99, "gamma_regularizer": null, "axis": 3, "gamma_constraint": null, "center": true, "beta_regularizer": null, "moving_mean_initializer": {"config": {}, "class_name": "Zeros"}, "epsilon": 0.001, "name": "batch_normalization_86", "moving_variance_initializer": {"config": {}, "class_name": "Ones"}, "beta_constraint": null, "beta_initializer": {"config": {}, "class_name": "Zeros"}, "trainable": false, "gamma_initializer": {"config": {}, "class_name": "Ones"}}, "name": "batch_normalization_86", "class_name": "BatchNormalization"}, {"inbound_nodes": [[["batch_normalization_86", 0, 0, {}]]], "config": {"name": "global_average_pooling2d_5", "data_format": "channels_last", "trainable": true}, "name": "global_average_pooling2d_5", "class_name": "GlobalAveragePooling2D"}, {"inbound_nodes": [[["global_average_pooling2d_5", 0, 0, {}]]], "config": {"bias_constraint": null, "bias_regularizer": null, "kernel_initializer": {"config": {"scale": 1.0, "mode": "fan_avg", "distribution": "uniform", "seed": null}, "class_name": "VarianceScaling"}, "kernel_constraint": null, "kernel_regularizer": null, "units": 1024, "activation": "relu", "activity_regularizer": null, "bias_initializer": {"config": {}, "class_name": "Zeros"}, "name": "dense_6", "use_bias": true, "trainable": true}, "name": "dense_6", "class_name": "Dense"}, {"inbound_nodes": [[["dense_6", 0, 0, {}]]], "config": {"bias_constraint": null, "bias_regularizer": null, "kernel_initializer": {"config": {"scale": 1.0, "mode": "fan_avg", "distribution": "uniform", "seed": null}, "class_name": "VarianceScaling"}, "kernel_constraint": null, "kernel_regularizer": null, "units": 2, "activation": "softmax", "activity_regularizer": null, "bias_initializer": {"config": {}, "class_name": "Zeros"}, "name": "dense_7", "use_bias": true, "trainable": true}, "name": "dense_7", "class_name": "Dense"}], "input_layers": [["input_1", 0, 0]]}, "backend": "tensorflow", "class_name": "Model", "keras_version": "2.0.5"}